ir_version: 6
producer_name: "pytorch"
producer_version: "2.0.1"
model_version: 0
graph {
  name: "torch_jit"
  node {
    input: "images"
    input: "/backbone/backbone/stem/Constant_1_output_0"
    input: "/backbone/backbone/stem/Constant_2_output_0"
    input: "/backbone/backbone/stem/Constant_output_0"
    input: "/backbone/backbone/stem/Constant_output_0"
    output: "/backbone/backbone/stem/Slice_output_0"
    name: "/backbone/backbone/stem/Slice"
    op_type: "Slice"
  }
  node {
    input: "/backbone/backbone/stem/Slice_output_0"
    input: "/backbone/backbone/stem/Constant_1_output_0"
    input: "/backbone/backbone/stem/Constant_2_output_0"
    input: "/backbone/backbone/stem/Constant_4_output_0"
    input: "/backbone/backbone/stem/Constant_output_0"
    output: "/backbone/backbone/stem/Slice_1_output_0"
    name: "/backbone/backbone/stem/Slice_1"
    op_type: "Slice"
  }
  node {
    input: "/backbone/backbone/stem/Slice_output_0"
    input: "/backbone/backbone/stem/Constant_9_output_0"
    input: "/backbone/backbone/stem/Constant_2_output_0"
    input: "/backbone/backbone/stem/Constant_4_output_0"
    input: "/backbone/backbone/stem/Constant_output_0"
    output: "/backbone/backbone/stem/Slice_2_output_0"
    name: "/backbone/backbone/stem/Slice_2"
    op_type: "Slice"
  }
  node {
    input: "images"
    input: "/backbone/backbone/stem/Constant_9_output_0"
    input: "/backbone/backbone/stem/Constant_2_output_0"
    input: "/backbone/backbone/stem/Constant_output_0"
    input: "/backbone/backbone/stem/Constant_output_0"
    output: "/backbone/backbone/stem/Slice_3_output_0"
    name: "/backbone/backbone/stem/Slice_3"
    op_type: "Slice"
  }
  node {
    input: "/backbone/backbone/stem/Slice_3_output_0"
    input: "/backbone/backbone/stem/Constant_1_output_0"
    input: "/backbone/backbone/stem/Constant_2_output_0"
    input: "/backbone/backbone/stem/Constant_4_output_0"
    input: "/backbone/backbone/stem/Constant_output_0"
    output: "/backbone/backbone/stem/Slice_4_output_0"
    name: "/backbone/backbone/stem/Slice_4"
    op_type: "Slice"
  }
  node {
    input: "/backbone/backbone/stem/Slice_3_output_0"
    input: "/backbone/backbone/stem/Constant_9_output_0"
    input: "/backbone/backbone/stem/Constant_2_output_0"
    input: "/backbone/backbone/stem/Constant_4_output_0"
    input: "/backbone/backbone/stem/Constant_output_0"
    output: "/backbone/backbone/stem/Slice_5_output_0"
    name: "/backbone/backbone/stem/Slice_5"
    op_type: "Slice"
  }
  node {
    input: "/backbone/backbone/stem/Slice_1_output_0"
    input: "/backbone/backbone/stem/Slice_4_output_0"
    input: "/backbone/backbone/stem/Slice_2_output_0"
    input: "/backbone/backbone/stem/Slice_5_output_0"
    output: "/backbone/backbone/stem/Concat_output_0"
    name: "/backbone/backbone/stem/Concat"
    op_type: "Concat"
    attribute {
      name: "axis"
      i: 1
      type: INT
    }
  }
  node {
    input: "/backbone/backbone/stem/Concat_output_0"
    input: "onnx::Conv_868"
    input: "onnx::Conv_869"
    output: "/backbone/backbone/stem/conv/conv/Conv_output_0"
    name: "/backbone/backbone/stem/conv/conv/Conv"
    op_type: "Conv"
    attribute {
      name: "dilations"
      ints: 1
      ints: 1
      type: INTS
    }
    attribute {
      name: "group"
      i: 1
      type: INT
    }
    attribute {
      name: "kernel_shape"
      ints: 3
      ints: 3
      type: INTS
    }
    attribute {
      name: "pads"
      ints: 1
      ints: 1
      ints: 1
      ints: 1
      type: INTS
    }
    attribute {
      name: "strides"
      ints: 1
      ints: 1
      type: INTS
    }
  }
  node {
    input: "/backbone/backbone/stem/conv/conv/Conv_output_0"
    output: "/backbone/backbone/stem/conv/act/Sigmoid_output_0"
    name: "/backbone/backbone/stem/conv/act/Sigmoid"
    op_type: "Sigmoid"
  }
  node {
    input: "/backbone/backbone/stem/conv/conv/Conv_output_0"
    input: "/backbone/backbone/stem/conv/act/Sigmoid_output_0"
    output: "/backbone/backbone/stem/conv/act/Mul_output_0"
    name: "/backbone/backbone/stem/conv/act/Mul"
    op_type: "Mul"
  }
  node {
    input: "/backbone/backbone/stem/conv/act/Mul_output_0"
    input: "onnx::Conv_871"
    input: "onnx::Conv_872"
    output: "/backbone/backbone/dark2/dark2.0/conv/Conv_output_0"
    name: "/backbone/backbone/dark2/dark2.0/conv/Conv"
    op_type: "Conv"
    attribute {
      name: "dilations"
      ints: 1
      ints: 1
      type: INTS
    }
    attribute {
      name: "group"
      i: 1
      type: INT
    }
    attribute {
      name: "kernel_shape"
      ints: 3
      ints: 3
      type: INTS
    }
    attribute {
      name: "pads"
      ints: 1
      ints: 1
      ints: 1
      ints: 1
      type: INTS
    }
    attribute {
      name: "strides"
      ints: 2
      ints: 2
      type: INTS
    }
  }
  node {
    input: "/backbone/backbone/dark2/dark2.0/conv/Conv_output_0"
    output: "/backbone/backbone/dark2/dark2.0/act/Sigmoid_output_0"
    name: "/backbone/backbone/dark2/dark2.0/act/Sigmoid"
    op_type: "Sigmoid"
  }
  node {
    input: "/backbone/backbone/dark2/dark2.0/conv/Conv_output_0"
    input: "/backbone/backbone/dark2/dark2.0/act/Sigmoid_output_0"
    output: "/backbone/backbone/dark2/dark2.0/act/Mul_output_0"
    name: "/backbone/backbone/dark2/dark2.0/act/Mul"
    op_type: "Mul"
  }
  node {
    input: "/backbone/backbone/dark2/dark2.0/act/Mul_output_0"
    input: "onnx::Conv_874"
    input: "onnx::Conv_875"
    output: "/backbone/backbone/dark2/dark2.1/conv1/conv/Conv_output_0"
    name: "/backbone/backbone/dark2/dark2.1/conv1/conv/Conv"
    op_type: "Conv"
    attribute {
      name: "dilations"
      ints: 1
      ints: 1
      type: INTS
    }
    attribute {
      name: "group"
      i: 1
      type: INT
    }
    attribute {
      name: "kernel_shape"
      ints: 1
      ints: 1
      type: INTS
    }
    attribute {
      name: "pads"
      ints: 0
      ints: 0
      ints: 0
      ints: 0
      type: INTS
    }
    attribute {
      name: "strides"
      ints: 1
      ints: 1
      type: INTS
    }
  }
  node {
    input: "/backbone/backbone/dark2/dark2.1/conv1/conv/Conv_output_0"
    output: "/backbone/backbone/dark2/dark2.1/conv1/act/Sigmoid_output_0"
    name: "/backbone/backbone/dark2/dark2.1/conv1/act/Sigmoid"
    op_type: "Sigmoid"
  }
  node {
    input: "/backbone/backbone/dark2/dark2.1/conv1/conv/Conv_output_0"
    input: "/backbone/backbone/dark2/dark2.1/conv1/act/Sigmoid_output_0"
    output: "/backbone/backbone/dark2/dark2.1/conv1/act/Mul_output_0"
    name: "/backbone/backbone/dark2/dark2.1/conv1/act/Mul"
    op_type: "Mul"
  }
  node {
    input: "/backbone/backbone/dark2/dark2.0/act/Mul_output_0"
    input: "onnx::Conv_877"
    input: "onnx::Conv_878"
    output: "/backbone/backbone/dark2/dark2.1/conv2/conv/Conv_output_0"
    name: "/backbone/backbone/dark2/dark2.1/conv2/conv/Conv"
    op_type: "Conv"
    attribute {
      name: "dilations"
      ints: 1
      ints: 1
      type: INTS
    }
    attribute {
      name: "group"
      i: 1
      type: INT
    }
    attribute {
      name: "kernel_shape"
      ints: 1
      ints: 1
      type: INTS
    }
    attribute {
      name: "pads"
      ints: 0
      ints: 0
      ints: 0
      ints: 0
      type: INTS
    }
    attribute {
      name: "strides"
      ints: 1
      ints: 1
      type: INTS
    }
  }
  node {
    input: "/backbone/backbone/dark2/dark2.1/conv2/conv/Conv_output_0"
    output: "/backbone/backbone/dark2/dark2.1/conv2/act/Sigmoid_output_0"
    name: "/backbone/backbone/dark2/dark2.1/conv2/act/Sigmoid"
    op_type: "Sigmoid"
  }
  node {
    input: "/backbone/backbone/dark2/dark2.1/conv2/conv/Conv_output_0"
    input: "/backbone/backbone/dark2/dark2.1/conv2/act/Sigmoid_output_0"
    output: "/backbone/backbone/dark2/dark2.1/conv2/act/Mul_output_0"
    name: "/backbone/backbone/dark2/dark2.1/conv2/act/Mul"
    op_type: "Mul"
  }
  node {
    input: "/backbone/backbone/dark2/dark2.1/conv1/act/Mul_output_0"
    input: "onnx::Conv_880"
    input: "onnx::Conv_881"
    output: "/backbone/backbone/dark2/dark2.1/m/m.0/conv1/conv/Conv_output_0"
    name: "/backbone/backbone/dark2/dark2.1/m/m.0/conv1/conv/Conv"
    op_type: "Conv"
    attribute {
      name: "dilations"
      ints: 1
      ints: 1
      type: INTS
    }
    attribute {
      name: "group"
      i: 1
      type: INT
    }
    attribute {
      name: "kernel_shape"
      ints: 1
      ints: 1
      type: INTS
    }
    attribute {
      name: "pads"
      ints: 0
      ints: 0
      ints: 0
      ints: 0
      type: INTS
    }
    attribute {
      name: "strides"
      ints: 1
      ints: 1
      type: INTS
    }
  }
  node {
    input: "/backbone/backbone/dark2/dark2.1/m/m.0/conv1/conv/Conv_output_0"
    output: "/backbone/backbone/dark2/dark2.1/m/m.0/conv1/act/Sigmoid_output_0"
    name: "/backbone/backbone/dark2/dark2.1/m/m.0/conv1/act/Sigmoid"
    op_type: "Sigmoid"
  }
  node {
    input: "/backbone/backbone/dark2/dark2.1/m/m.0/conv1/conv/Conv_output_0"
    input: "/backbone/backbone/dark2/dark2.1/m/m.0/conv1/act/Sigmoid_output_0"
    output: "/backbone/backbone/dark2/dark2.1/m/m.0/conv1/act/Mul_output_0"
    name: "/backbone/backbone/dark2/dark2.1/m/m.0/conv1/act/Mul"
    op_type: "Mul"
  }
  node {
    input: "/backbone/backbone/dark2/dark2.1/m/m.0/conv1/act/Mul_output_0"
    input: "onnx::Conv_883"
    input: "onnx::Conv_884"
    output: "/backbone/backbone/dark2/dark2.1/m/m.0/conv2/conv/Conv_output_0"
    name: "/backbone/backbone/dark2/dark2.1/m/m.0/conv2/conv/Conv"
    op_type: "Conv"
    attribute {
      name: "dilations"
      ints: 1
      ints: 1
      type: INTS
    }
    attribute {
      name: "group"
      i: 1
      type: INT
    }
    attribute {
      name: "kernel_shape"
      ints: 3
      ints: 3
      type: INTS
    }
    attribute {
      name: "pads"
      ints: 1
      ints: 1
      ints: 1
      ints: 1
      type: INTS
    }
    attribute {
      name: "strides"
      ints: 1
      ints: 1
      type: INTS
    }
  }
  node {
    input: "/backbone/backbone/dark2/dark2.1/m/m.0/conv2/conv/Conv_output_0"
    output: "/backbone/backbone/dark2/dark2.1/m/m.0/conv2/act/Sigmoid_output_0"
    name: "/backbone/backbone/dark2/dark2.1/m/m.0/conv2/act/Sigmoid"
    op_type: "Sigmoid"
  }
  node {
    input: "/backbone/backbone/dark2/dark2.1/m/m.0/conv2/conv/Conv_output_0"
    input: "/backbone/backbone/dark2/dark2.1/m/m.0/conv2/act/Sigmoid_output_0"
    output: "/backbone/backbone/dark2/dark2.1/m/m.0/conv2/act/Mul_output_0"
    name: "/backbone/backbone/dark2/dark2.1/m/m.0/conv2/act/Mul"
    op_type: "Mul"
  }
  node {
    input: "/backbone/backbone/dark2/dark2.1/m/m.0/conv2/act/Mul_output_0"
    input: "/backbone/backbone/dark2/dark2.1/conv1/act/Mul_output_0"
    output: "/backbone/backbone/dark2/dark2.1/m/m.0/Add_output_0"
    name: "/backbone/backbone/dark2/dark2.1/m/m.0/Add"
    op_type: "Add"
  }
  node {
    input: "/backbone/backbone/dark2/dark2.1/m/m.0/Add_output_0"
    input: "/backbone/backbone/dark2/dark2.1/conv2/act/Mul_output_0"
    output: "/backbone/backbone/dark2/dark2.1/Concat_output_0"
    name: "/backbone/backbone/dark2/dark2.1/Concat"
    op_type: "Concat"
    attribute {
      name: "axis"
      i: 1
      type: INT
    }
  }
  node {
    input: "/backbone/backbone/dark2/dark2.1/Concat_output_0"
    input: "onnx::Conv_886"
    input: "onnx::Conv_887"
    output: "/backbone/backbone/dark2/dark2.1/conv3/conv/Conv_output_0"
    name: "/backbone/backbone/dark2/dark2.1/conv3/conv/Conv"
    op_type: "Conv"
    attribute {
      name: "dilations"
      ints: 1
      ints: 1
      type: INTS
    }
    attribute {
      name: "group"
      i: 1
      type: INT
    }
    attribute {
      name: "kernel_shape"
      ints: 1
      ints: 1
      type: INTS
    }
    attribute {
      name: "pads"
      ints: 0
      ints: 0
      ints: 0
      ints: 0
      type: INTS
    }
    attribute {
      name: "strides"
      ints: 1
      ints: 1
      type: INTS
    }
  }
  node {
    input: "/backbone/backbone/dark2/dark2.1/conv3/conv/Conv_output_0"
    output: "/backbone/backbone/dark2/dark2.1/conv3/act/Sigmoid_output_0"
    name: "/backbone/backbone/dark2/dark2.1/conv3/act/Sigmoid"
    op_type: "Sigmoid"
  }
  node {
    input: "/backbone/backbone/dark2/dark2.1/conv3/conv/Conv_output_0"
    input: "/backbone/backbone/dark2/dark2.1/conv3/act/Sigmoid_output_0"
    output: "/backbone/backbone/dark2/dark2.1/conv3/act/Mul_output_0"
    name: "/backbone/backbone/dark2/dark2.1/conv3/act/Mul"
    op_type: "Mul"
  }
  node {
    input: "/backbone/backbone/dark2/dark2.1/conv3/act/Mul_output_0"
    input: "onnx::Conv_889"
    input: "onnx::Conv_890"
    output: "/backbone/backbone/dark3/dark3.0/conv/Conv_output_0"
    name: "/backbone/backbone/dark3/dark3.0/conv/Conv"
    op_type: "Conv"
    attribute {
      name: "dilations"
      ints: 1
      ints: 1
      type: INTS
    }
    attribute {
      name: "group"
      i: 1
      type: INT
    }
    attribute {
      name: "kernel_shape"
      ints: 3
      ints: 3
      type: INTS
    }
    attribute {
      name: "pads"
      ints: 1
      ints: 1
      ints: 1
      ints: 1
      type: INTS
    }
    attribute {
      name: "strides"
      ints: 2
      ints: 2
      type: INTS
    }
  }
  node {
    input: "/backbone/backbone/dark3/dark3.0/conv/Conv_output_0"
    output: "/backbone/backbone/dark3/dark3.0/act/Sigmoid_output_0"
    name: "/backbone/backbone/dark3/dark3.0/act/Sigmoid"
    op_type: "Sigmoid"
  }
  node {
    input: "/backbone/backbone/dark3/dark3.0/conv/Conv_output_0"
    input: "/backbone/backbone/dark3/dark3.0/act/Sigmoid_output_0"
    output: "/backbone/backbone/dark3/dark3.0/act/Mul_output_0"
    name: "/backbone/backbone/dark3/dark3.0/act/Mul"
    op_type: "Mul"
  }
  node {
    input: "/backbone/backbone/dark3/dark3.0/act/Mul_output_0"
    input: "onnx::Conv_892"
    input: "onnx::Conv_893"
    output: "/backbone/backbone/dark3/dark3.1/conv1/conv/Conv_output_0"
    name: "/backbone/backbone/dark3/dark3.1/conv1/conv/Conv"
    op_type: "Conv"
    attribute {
      name: "dilations"
      ints: 1
      ints: 1
      type: INTS
    }
    attribute {
      name: "group"
      i: 1
      type: INT
    }
    attribute {
      name: "kernel_shape"
      ints: 1
      ints: 1
      type: INTS
    }
    attribute {
      name: "pads"
      ints: 0
      ints: 0
      ints: 0
      ints: 0
      type: INTS
    }
    attribute {
      name: "strides"
      ints: 1
      ints: 1
      type: INTS
    }
  }
  node {
    input: "/backbone/backbone/dark3/dark3.1/conv1/conv/Conv_output_0"
    output: "/backbone/backbone/dark3/dark3.1/conv1/act/Sigmoid_output_0"
    name: "/backbone/backbone/dark3/dark3.1/conv1/act/Sigmoid"
    op_type: "Sigmoid"
  }
  node {
    input: "/backbone/backbone/dark3/dark3.1/conv1/conv/Conv_output_0"
    input: "/backbone/backbone/dark3/dark3.1/conv1/act/Sigmoid_output_0"
    output: "/backbone/backbone/dark3/dark3.1/conv1/act/Mul_output_0"
    name: "/backbone/backbone/dark3/dark3.1/conv1/act/Mul"
    op_type: "Mul"
  }
  node {
    input: "/backbone/backbone/dark3/dark3.0/act/Mul_output_0"
    input: "onnx::Conv_895"
    input: "onnx::Conv_896"
    output: "/backbone/backbone/dark3/dark3.1/conv2/conv/Conv_output_0"
    name: "/backbone/backbone/dark3/dark3.1/conv2/conv/Conv"
    op_type: "Conv"
    attribute {
      name: "dilations"
      ints: 1
      ints: 1
      type: INTS
    }
    attribute {
      name: "group"
      i: 1
      type: INT
    }
    attribute {
      name: "kernel_shape"
      ints: 1
      ints: 1
      type: INTS
    }
    attribute {
      name: "pads"
      ints: 0
      ints: 0
      ints: 0
      ints: 0
      type: INTS
    }
    attribute {
      name: "strides"
      ints: 1
      ints: 1
      type: INTS
    }
  }
  node {
    input: "/backbone/backbone/dark3/dark3.1/conv2/conv/Conv_output_0"
    output: "/backbone/backbone/dark3/dark3.1/conv2/act/Sigmoid_output_0"
    name: "/backbone/backbone/dark3/dark3.1/conv2/act/Sigmoid"
    op_type: "Sigmoid"
  }
  node {
    input: "/backbone/backbone/dark3/dark3.1/conv2/conv/Conv_output_0"
    input: "/backbone/backbone/dark3/dark3.1/conv2/act/Sigmoid_output_0"
    output: "/backbone/backbone/dark3/dark3.1/conv2/act/Mul_output_0"
    name: "/backbone/backbone/dark3/dark3.1/conv2/act/Mul"
    op_type: "Mul"
  }
  node {
    input: "/backbone/backbone/dark3/dark3.1/conv1/act/Mul_output_0"
    input: "onnx::Conv_898"
    input: "onnx::Conv_899"
    output: "/backbone/backbone/dark3/dark3.1/m/m.0/conv1/conv/Conv_output_0"
    name: "/backbone/backbone/dark3/dark3.1/m/m.0/conv1/conv/Conv"
    op_type: "Conv"
    attribute {
      name: "dilations"
      ints: 1
      ints: 1
      type: INTS
    }
    attribute {
      name: "group"
      i: 1
      type: INT
    }
    attribute {
      name: "kernel_shape"
      ints: 1
      ints: 1
      type: INTS
    }
    attribute {
      name: "pads"
      ints: 0
      ints: 0
      ints: 0
      ints: 0
      type: INTS
    }
    attribute {
      name: "strides"
      ints: 1
      ints: 1
      type: INTS
    }
  }
  node {
    input: "/backbone/backbone/dark3/dark3.1/m/m.0/conv1/conv/Conv_output_0"
    output: "/backbone/backbone/dark3/dark3.1/m/m.0/conv1/act/Sigmoid_output_0"
    name: "/backbone/backbone/dark3/dark3.1/m/m.0/conv1/act/Sigmoid"
    op_type: "Sigmoid"
  }
  node {
    input: "/backbone/backbone/dark3/dark3.1/m/m.0/conv1/conv/Conv_output_0"
    input: "/backbone/backbone/dark3/dark3.1/m/m.0/conv1/act/Sigmoid_output_0"
    output: "/backbone/backbone/dark3/dark3.1/m/m.0/conv1/act/Mul_output_0"
    name: "/backbone/backbone/dark3/dark3.1/m/m.0/conv1/act/Mul"
    op_type: "Mul"
  }
  node {
    input: "/backbone/backbone/dark3/dark3.1/m/m.0/conv1/act/Mul_output_0"
    input: "onnx::Conv_901"
    input: "onnx::Conv_902"
    output: "/backbone/backbone/dark3/dark3.1/m/m.0/conv2/conv/Conv_output_0"
    name: "/backbone/backbone/dark3/dark3.1/m/m.0/conv2/conv/Conv"
    op_type: "Conv"
    attribute {
      name: "dilations"
      ints: 1
      ints: 1
      type: INTS
    }
    attribute {
      name: "group"
      i: 1
      type: INT
    }
    attribute {
      name: "kernel_shape"
      ints: 3
      ints: 3
      type: INTS
    }
    attribute {
      name: "pads"
      ints: 1
      ints: 1
      ints: 1
      ints: 1
      type: INTS
    }
    attribute {
      name: "strides"
      ints: 1
      ints: 1
      type: INTS
    }
  }
  node {
    input: "/backbone/backbone/dark3/dark3.1/m/m.0/conv2/conv/Conv_output_0"
    output: "/backbone/backbone/dark3/dark3.1/m/m.0/conv2/act/Sigmoid_output_0"
    name: "/backbone/backbone/dark3/dark3.1/m/m.0/conv2/act/Sigmoid"
    op_type: "Sigmoid"
  }
  node {
    input: "/backbone/backbone/dark3/dark3.1/m/m.0/conv2/conv/Conv_output_0"
    input: "/backbone/backbone/dark3/dark3.1/m/m.0/conv2/act/Sigmoid_output_0"
    output: "/backbone/backbone/dark3/dark3.1/m/m.0/conv2/act/Mul_output_0"
    name: "/backbone/backbone/dark3/dark3.1/m/m.0/conv2/act/Mul"
    op_type: "Mul"
  }
  node {
    input: "/backbone/backbone/dark3/dark3.1/m/m.0/conv2/act/Mul_output_0"
    input: "/backbone/backbone/dark3/dark3.1/conv1/act/Mul_output_0"
    output: "/backbone/backbone/dark3/dark3.1/m/m.0/Add_output_0"
    name: "/backbone/backbone/dark3/dark3.1/m/m.0/Add"
    op_type: "Add"
  }
  node {
    input: "/backbone/backbone/dark3/dark3.1/m/m.0/Add_output_0"
    input: "onnx::Conv_904"
    input: "onnx::Conv_905"
    output: "/backbone/backbone/dark3/dark3.1/m/m.1/conv1/conv/Conv_output_0"
    name: "/backbone/backbone/dark3/dark3.1/m/m.1/conv1/conv/Conv"
    op_type: "Conv"
    attribute {
      name: "dilations"
      ints: 1
      ints: 1
      type: INTS
    }
    attribute {
      name: "group"
      i: 1
      type: INT
    }
    attribute {
      name: "kernel_shape"
      ints: 1
      ints: 1
      type: INTS
    }
    attribute {
      name: "pads"
      ints: 0
      ints: 0
      ints: 0
      ints: 0
      type: INTS
    }
    attribute {
      name: "strides"
      ints: 1
      ints: 1
      type: INTS
    }
  }
  node {
    input: "/backbone/backbone/dark3/dark3.1/m/m.1/conv1/conv/Conv_output_0"
    output: "/backbone/backbone/dark3/dark3.1/m/m.1/conv1/act/Sigmoid_output_0"
    name: "/backbone/backbone/dark3/dark3.1/m/m.1/conv1/act/Sigmoid"
    op_type: "Sigmoid"
  }
  node {
    input: "/backbone/backbone/dark3/dark3.1/m/m.1/conv1/conv/Conv_output_0"
    input: "/backbone/backbone/dark3/dark3.1/m/m.1/conv1/act/Sigmoid_output_0"
    output: "/backbone/backbone/dark3/dark3.1/m/m.1/conv1/act/Mul_output_0"
    name: "/backbone/backbone/dark3/dark3.1/m/m.1/conv1/act/Mul"
    op_type: "Mul"
  }
  node {
    input: "/backbone/backbone/dark3/dark3.1/m/m.1/conv1/act/Mul_output_0"
    input: "onnx::Conv_907"
    input: "onnx::Conv_908"
    output: "/backbone/backbone/dark3/dark3.1/m/m.1/conv2/conv/Conv_output_0"
    name: "/backbone/backbone/dark3/dark3.1/m/m.1/conv2/conv/Conv"
    op_type: "Conv"
    attribute {
      name: "dilations"
      ints: 1
      ints: 1
      type: INTS
    }
    attribute {
      name: "group"
      i: 1
      type: INT
    }
    attribute {
      name: "kernel_shape"
      ints: 3
      ints: 3
      type: INTS
    }
    attribute {
      name: "pads"
      ints: 1
      ints: 1
      ints: 1
      ints: 1
      type: INTS
    }
    attribute {
      name: "strides"
      ints: 1
      ints: 1
      type: INTS
    }
  }
  node {
    input: "/backbone/backbone/dark3/dark3.1/m/m.1/conv2/conv/Conv_output_0"
    output: "/backbone/backbone/dark3/dark3.1/m/m.1/conv2/act/Sigmoid_output_0"
    name: "/backbone/backbone/dark3/dark3.1/m/m.1/conv2/act/Sigmoid"
    op_type: "Sigmoid"
  }
  node {
    input: "/backbone/backbone/dark3/dark3.1/m/m.1/conv2/conv/Conv_output_0"
    input: "/backbone/backbone/dark3/dark3.1/m/m.1/conv2/act/Sigmoid_output_0"
    output: "/backbone/backbone/dark3/dark3.1/m/m.1/conv2/act/Mul_output_0"
    name: "/backbone/backbone/dark3/dark3.1/m/m.1/conv2/act/Mul"
    op_type: "Mul"
  }
  node {
    input: "/backbone/backbone/dark3/dark3.1/m/m.1/conv2/act/Mul_output_0"
    input: "/backbone/backbone/dark3/dark3.1/m/m.0/Add_output_0"
    output: "/backbone/backbone/dark3/dark3.1/m/m.1/Add_output_0"
    name: "/backbone/backbone/dark3/dark3.1/m/m.1/Add"
    op_type: "Add"
  }
  node {
    input: "/backbone/backbone/dark3/dark3.1/m/m.1/Add_output_0"
    input: "onnx::Conv_910"
    input: "onnx::Conv_911"
    output: "/backbone/backbone/dark3/dark3.1/m/m.2/conv1/conv/Conv_output_0"
    name: "/backbone/backbone/dark3/dark3.1/m/m.2/conv1/conv/Conv"
    op_type: "Conv"
    attribute {
      name: "dilations"
      ints: 1
      ints: 1
      type: INTS
    }
    attribute {
      name: "group"
      i: 1
      type: INT
    }
    attribute {
      name: "kernel_shape"
      ints: 1
      ints: 1
      type: INTS
    }
    attribute {
      name: "pads"
      ints: 0
      ints: 0
      ints: 0
      ints: 0
      type: INTS
    }
    attribute {
      name: "strides"
      ints: 1
      ints: 1
      type: INTS
    }
  }
  node {
    input: "/backbone/backbone/dark3/dark3.1/m/m.2/conv1/conv/Conv_output_0"
    output: "/backbone/backbone/dark3/dark3.1/m/m.2/conv1/act/Sigmoid_output_0"
    name: "/backbone/backbone/dark3/dark3.1/m/m.2/conv1/act/Sigmoid"
    op_type: "Sigmoid"
  }
  node {
    input: "/backbone/backbone/dark3/dark3.1/m/m.2/conv1/conv/Conv_output_0"
    input: "/backbone/backbone/dark3/dark3.1/m/m.2/conv1/act/Sigmoid_output_0"
    output: "/backbone/backbone/dark3/dark3.1/m/m.2/conv1/act/Mul_output_0"
    name: "/backbone/backbone/dark3/dark3.1/m/m.2/conv1/act/Mul"
    op_type: "Mul"
  }
  node {
    input: "/backbone/backbone/dark3/dark3.1/m/m.2/conv1/act/Mul_output_0"
    input: "onnx::Conv_913"
    input: "onnx::Conv_914"
    output: "/backbone/backbone/dark3/dark3.1/m/m.2/conv2/conv/Conv_output_0"
    name: "/backbone/backbone/dark3/dark3.1/m/m.2/conv2/conv/Conv"
    op_type: "Conv"
    attribute {
      name: "dilations"
      ints: 1
      ints: 1
      type: INTS
    }
    attribute {
      name: "group"
      i: 1
      type: INT
    }
    attribute {
      name: "kernel_shape"
      ints: 3
      ints: 3
      type: INTS
    }
    attribute {
      name: "pads"
      ints: 1
      ints: 1
      ints: 1
      ints: 1
      type: INTS
    }
    attribute {
      name: "strides"
      ints: 1
      ints: 1
      type: INTS
    }
  }
  node {
    input: "/backbone/backbone/dark3/dark3.1/m/m.2/conv2/conv/Conv_output_0"
    output: "/backbone/backbone/dark3/dark3.1/m/m.2/conv2/act/Sigmoid_output_0"
    name: "/backbone/backbone/dark3/dark3.1/m/m.2/conv2/act/Sigmoid"
    op_type: "Sigmoid"
  }
  node {
    input: "/backbone/backbone/dark3/dark3.1/m/m.2/conv2/conv/Conv_output_0"
    input: "/backbone/backbone/dark3/dark3.1/m/m.2/conv2/act/Sigmoid_output_0"
    output: "/backbone/backbone/dark3/dark3.1/m/m.2/conv2/act/Mul_output_0"
    name: "/backbone/backbone/dark3/dark3.1/m/m.2/conv2/act/Mul"
    op_type: "Mul"
  }
  node {
    input: "/backbone/backbone/dark3/dark3.1/m/m.2/conv2/act/Mul_output_0"
    input: "/backbone/backbone/dark3/dark3.1/m/m.1/Add_output_0"
    output: "/backbone/backbone/dark3/dark3.1/m/m.2/Add_output_0"
    name: "/backbone/backbone/dark3/dark3.1/m/m.2/Add"
    op_type: "Add"
  }
  node {
    input: "/backbone/backbone/dark3/dark3.1/m/m.2/Add_output_0"
    input: "/backbone/backbone/dark3/dark3.1/conv2/act/Mul_output_0"
    output: "/backbone/backbone/dark3/dark3.1/Concat_output_0"
    name: "/backbone/backbone/dark3/dark3.1/Concat"
    op_type: "Concat"
    attribute {
      name: "axis"
      i: 1
      type: INT
    }
  }
  node {
    input: "/backbone/backbone/dark3/dark3.1/Concat_output_0"
    input: "onnx::Conv_916"
    input: "onnx::Conv_917"
    output: "/backbone/backbone/dark3/dark3.1/conv3/conv/Conv_output_0"
    name: "/backbone/backbone/dark3/dark3.1/conv3/conv/Conv"
    op_type: "Conv"
    attribute {
      name: "dilations"
      ints: 1
      ints: 1
      type: INTS
    }
    attribute {
      name: "group"
      i: 1
      type: INT
    }
    attribute {
      name: "kernel_shape"
      ints: 1
      ints: 1
      type: INTS
    }
    attribute {
      name: "pads"
      ints: 0
      ints: 0
      ints: 0
      ints: 0
      type: INTS
    }
    attribute {
      name: "strides"
      ints: 1
      ints: 1
      type: INTS
    }
  }
  node {
    input: "/backbone/backbone/dark3/dark3.1/conv3/conv/Conv_output_0"
    output: "/backbone/backbone/dark3/dark3.1/conv3/act/Sigmoid_output_0"
    name: "/backbone/backbone/dark3/dark3.1/conv3/act/Sigmoid"
    op_type: "Sigmoid"
  }
  node {
    input: "/backbone/backbone/dark3/dark3.1/conv3/conv/Conv_output_0"
    input: "/backbone/backbone/dark3/dark3.1/conv3/act/Sigmoid_output_0"
    output: "/backbone/backbone/dark3/dark3.1/conv3/act/Mul_output_0"
    name: "/backbone/backbone/dark3/dark3.1/conv3/act/Mul"
    op_type: "Mul"
  }
  node {
    input: "/backbone/backbone/dark3/dark3.1/conv3/act/Mul_output_0"
    input: "onnx::Conv_919"
    input: "onnx::Conv_920"
    output: "/backbone/backbone/dark4/dark4.0/conv/Conv_output_0"
    name: "/backbone/backbone/dark4/dark4.0/conv/Conv"
    op_type: "Conv"
    attribute {
      name: "dilations"
      ints: 1
      ints: 1
      type: INTS
    }
    attribute {
      name: "group"
      i: 1
      type: INT
    }
    attribute {
      name: "kernel_shape"
      ints: 3
      ints: 3
      type: INTS
    }
    attribute {
      name: "pads"
      ints: 1
      ints: 1
      ints: 1
      ints: 1
      type: INTS
    }
    attribute {
      name: "strides"
      ints: 2
      ints: 2
      type: INTS
    }
  }
  node {
    input: "/backbone/backbone/dark4/dark4.0/conv/Conv_output_0"
    output: "/backbone/backbone/dark4/dark4.0/act/Sigmoid_output_0"
    name: "/backbone/backbone/dark4/dark4.0/act/Sigmoid"
    op_type: "Sigmoid"
  }
  node {
    input: "/backbone/backbone/dark4/dark4.0/conv/Conv_output_0"
    input: "/backbone/backbone/dark4/dark4.0/act/Sigmoid_output_0"
    output: "/backbone/backbone/dark4/dark4.0/act/Mul_output_0"
    name: "/backbone/backbone/dark4/dark4.0/act/Mul"
    op_type: "Mul"
  }
  node {
    input: "/backbone/backbone/dark4/dark4.0/act/Mul_output_0"
    input: "onnx::Conv_922"
    input: "onnx::Conv_923"
    output: "/backbone/backbone/dark4/dark4.1/conv1/conv/Conv_output_0"
    name: "/backbone/backbone/dark4/dark4.1/conv1/conv/Conv"
    op_type: "Conv"
    attribute {
      name: "dilations"
      ints: 1
      ints: 1
      type: INTS
    }
    attribute {
      name: "group"
      i: 1
      type: INT
    }
    attribute {
      name: "kernel_shape"
      ints: 1
      ints: 1
      type: INTS
    }
    attribute {
      name: "pads"
      ints: 0
      ints: 0
      ints: 0
      ints: 0
      type: INTS
    }
    attribute {
      name: "strides"
      ints: 1
      ints: 1
      type: INTS
    }
  }
  node {
    input: "/backbone/backbone/dark4/dark4.1/conv1/conv/Conv_output_0"
    output: "/backbone/backbone/dark4/dark4.1/conv1/act/Sigmoid_output_0"
    name: "/backbone/backbone/dark4/dark4.1/conv1/act/Sigmoid"
    op_type: "Sigmoid"
  }
  node {
    input: "/backbone/backbone/dark4/dark4.1/conv1/conv/Conv_output_0"
    input: "/backbone/backbone/dark4/dark4.1/conv1/act/Sigmoid_output_0"
    output: "/backbone/backbone/dark4/dark4.1/conv1/act/Mul_output_0"
    name: "/backbone/backbone/dark4/dark4.1/conv1/act/Mul"
    op_type: "Mul"
  }
  node {
    input: "/backbone/backbone/dark4/dark4.0/act/Mul_output_0"
    input: "onnx::Conv_925"
    input: "onnx::Conv_926"
    output: "/backbone/backbone/dark4/dark4.1/conv2/conv/Conv_output_0"
    name: "/backbone/backbone/dark4/dark4.1/conv2/conv/Conv"
    op_type: "Conv"
    attribute {
      name: "dilations"
      ints: 1
      ints: 1
      type: INTS
    }
    attribute {
      name: "group"
      i: 1
      type: INT
    }
    attribute {
      name: "kernel_shape"
      ints: 1
      ints: 1
      type: INTS
    }
    attribute {
      name: "pads"
      ints: 0
      ints: 0
      ints: 0
      ints: 0
      type: INTS
    }
    attribute {
      name: "strides"
      ints: 1
      ints: 1
      type: INTS
    }
  }
  node {
    input: "/backbone/backbone/dark4/dark4.1/conv2/conv/Conv_output_0"
    output: "/backbone/backbone/dark4/dark4.1/conv2/act/Sigmoid_output_0"
    name: "/backbone/backbone/dark4/dark4.1/conv2/act/Sigmoid"
    op_type: "Sigmoid"
  }
  node {
    input: "/backbone/backbone/dark4/dark4.1/conv2/conv/Conv_output_0"
    input: "/backbone/backbone/dark4/dark4.1/conv2/act/Sigmoid_output_0"
    output: "/backbone/backbone/dark4/dark4.1/conv2/act/Mul_output_0"
    name: "/backbone/backbone/dark4/dark4.1/conv2/act/Mul"
    op_type: "Mul"
  }
  node {
    input: "/backbone/backbone/dark4/dark4.1/conv1/act/Mul_output_0"
    input: "onnx::Conv_928"
    input: "onnx::Conv_929"
    output: "/backbone/backbone/dark4/dark4.1/m/m.0/conv1/conv/Conv_output_0"
    name: "/backbone/backbone/dark4/dark4.1/m/m.0/conv1/conv/Conv"
    op_type: "Conv"
    attribute {
      name: "dilations"
      ints: 1
      ints: 1
      type: INTS
    }
    attribute {
      name: "group"
      i: 1
      type: INT
    }
    attribute {
      name: "kernel_shape"
      ints: 1
      ints: 1
      type: INTS
    }
    attribute {
      name: "pads"
      ints: 0
      ints: 0
      ints: 0
      ints: 0
      type: INTS
    }
    attribute {
      name: "strides"
      ints: 1
      ints: 1
      type: INTS
    }
  }
  node {
    input: "/backbone/backbone/dark4/dark4.1/m/m.0/conv1/conv/Conv_output_0"
    output: "/backbone/backbone/dark4/dark4.1/m/m.0/conv1/act/Sigmoid_output_0"
    name: "/backbone/backbone/dark4/dark4.1/m/m.0/conv1/act/Sigmoid"
    op_type: "Sigmoid"
  }
  node {
    input: "/backbone/backbone/dark4/dark4.1/m/m.0/conv1/conv/Conv_output_0"
    input: "/backbone/backbone/dark4/dark4.1/m/m.0/conv1/act/Sigmoid_output_0"
    output: "/backbone/backbone/dark4/dark4.1/m/m.0/conv1/act/Mul_output_0"
    name: "/backbone/backbone/dark4/dark4.1/m/m.0/conv1/act/Mul"
    op_type: "Mul"
  }
  node {
    input: "/backbone/backbone/dark4/dark4.1/m/m.0/conv1/act/Mul_output_0"
    input: "onnx::Conv_931"
    input: "onnx::Conv_932"
    output: "/backbone/backbone/dark4/dark4.1/m/m.0/conv2/conv/Conv_output_0"
    name: "/backbone/backbone/dark4/dark4.1/m/m.0/conv2/conv/Conv"
    op_type: "Conv"
    attribute {
      name: "dilations"
      ints: 1
      ints: 1
      type: INTS
    }
    attribute {
      name: "group"
      i: 1
      type: INT
    }
    attribute {
      name: "kernel_shape"
      ints: 3
      ints: 3
      type: INTS
    }
    attribute {
      name: "pads"
      ints: 1
      ints: 1
      ints: 1
      ints: 1
      type: INTS
    }
    attribute {
      name: "strides"
      ints: 1
      ints: 1
      type: INTS
    }
  }
  node {
    input: "/backbone/backbone/dark4/dark4.1/m/m.0/conv2/conv/Conv_output_0"
    output: "/backbone/backbone/dark4/dark4.1/m/m.0/conv2/act/Sigmoid_output_0"
    name: "/backbone/backbone/dark4/dark4.1/m/m.0/conv2/act/Sigmoid"
    op_type: "Sigmoid"
  }
  node {
    input: "/backbone/backbone/dark4/dark4.1/m/m.0/conv2/conv/Conv_output_0"
    input: "/backbone/backbone/dark4/dark4.1/m/m.0/conv2/act/Sigmoid_output_0"
    output: "/backbone/backbone/dark4/dark4.1/m/m.0/conv2/act/Mul_output_0"
    name: "/backbone/backbone/dark4/dark4.1/m/m.0/conv2/act/Mul"
    op_type: "Mul"
  }
  node {
    input: "/backbone/backbone/dark4/dark4.1/m/m.0/conv2/act/Mul_output_0"
    input: "/backbone/backbone/dark4/dark4.1/conv1/act/Mul_output_0"
    output: "/backbone/backbone/dark4/dark4.1/m/m.0/Add_output_0"
    name: "/backbone/backbone/dark4/dark4.1/m/m.0/Add"
    op_type: "Add"
  }
  node {
    input: "/backbone/backbone/dark4/dark4.1/m/m.0/Add_output_0"
    input: "onnx::Conv_934"
    input: "onnx::Conv_935"
    output: "/backbone/backbone/dark4/dark4.1/m/m.1/conv1/conv/Conv_output_0"
    name: "/backbone/backbone/dark4/dark4.1/m/m.1/conv1/conv/Conv"
    op_type: "Conv"
    attribute {
      name: "dilations"
      ints: 1
      ints: 1
      type: INTS
    }
    attribute {
      name: "group"
      i: 1
      type: INT
    }
    attribute {
      name: "kernel_shape"
      ints: 1
      ints: 1
      type: INTS
    }
    attribute {
      name: "pads"
      ints: 0
      ints: 0
      ints: 0
      ints: 0
      type: INTS
    }
    attribute {
      name: "strides"
      ints: 1
      ints: 1
      type: INTS
    }
  }
  node {
    input: "/backbone/backbone/dark4/dark4.1/m/m.1/conv1/conv/Conv_output_0"
    output: "/backbone/backbone/dark4/dark4.1/m/m.1/conv1/act/Sigmoid_output_0"
    name: "/backbone/backbone/dark4/dark4.1/m/m.1/conv1/act/Sigmoid"
    op_type: "Sigmoid"
  }
  node {
    input: "/backbone/backbone/dark4/dark4.1/m/m.1/conv1/conv/Conv_output_0"
    input: "/backbone/backbone/dark4/dark4.1/m/m.1/conv1/act/Sigmoid_output_0"
    output: "/backbone/backbone/dark4/dark4.1/m/m.1/conv1/act/Mul_output_0"
    name: "/backbone/backbone/dark4/dark4.1/m/m.1/conv1/act/Mul"
    op_type: "Mul"
  }
  node {
    input: "/backbone/backbone/dark4/dark4.1/m/m.1/conv1/act/Mul_output_0"
    input: "onnx::Conv_937"
    input: "onnx::Conv_938"
    output: "/backbone/backbone/dark4/dark4.1/m/m.1/conv2/conv/Conv_output_0"
    name: "/backbone/backbone/dark4/dark4.1/m/m.1/conv2/conv/Conv"
    op_type: "Conv"
    attribute {
      name: "dilations"
      ints: 1
      ints: 1
      type: INTS
    }
    attribute {
      name: "group"
      i: 1
      type: INT
    }
    attribute {
      name: "kernel_shape"
      ints: 3
      ints: 3
      type: INTS
    }
    attribute {
      name: "pads"
      ints: 1
      ints: 1
      ints: 1
      ints: 1
      type: INTS
    }
    attribute {
      name: "strides"
      ints: 1
      ints: 1
      type: INTS
    }
  }
  node {
    input: "/backbone/backbone/dark4/dark4.1/m/m.1/conv2/conv/Conv_output_0"
    output: "/backbone/backbone/dark4/dark4.1/m/m.1/conv2/act/Sigmoid_output_0"
    name: "/backbone/backbone/dark4/dark4.1/m/m.1/conv2/act/Sigmoid"
    op_type: "Sigmoid"
  }
  node {
    input: "/backbone/backbone/dark4/dark4.1/m/m.1/conv2/conv/Conv_output_0"
    input: "/backbone/backbone/dark4/dark4.1/m/m.1/conv2/act/Sigmoid_output_0"
    output: "/backbone/backbone/dark4/dark4.1/m/m.1/conv2/act/Mul_output_0"
    name: "/backbone/backbone/dark4/dark4.1/m/m.1/conv2/act/Mul"
    op_type: "Mul"
  }
  node {
    input: "/backbone/backbone/dark4/dark4.1/m/m.1/conv2/act/Mul_output_0"
    input: "/backbone/backbone/dark4/dark4.1/m/m.0/Add_output_0"
    output: "/backbone/backbone/dark4/dark4.1/m/m.1/Add_output_0"
    name: "/backbone/backbone/dark4/dark4.1/m/m.1/Add"
    op_type: "Add"
  }
  node {
    input: "/backbone/backbone/dark4/dark4.1/m/m.1/Add_output_0"
    input: "onnx::Conv_940"
    input: "onnx::Conv_941"
    output: "/backbone/backbone/dark4/dark4.1/m/m.2/conv1/conv/Conv_output_0"
    name: "/backbone/backbone/dark4/dark4.1/m/m.2/conv1/conv/Conv"
    op_type: "Conv"
    attribute {
      name: "dilations"
      ints: 1
      ints: 1
      type: INTS
    }
    attribute {
      name: "group"
      i: 1
      type: INT
    }
    attribute {
      name: "kernel_shape"
      ints: 1
      ints: 1
      type: INTS
    }
    attribute {
      name: "pads"
      ints: 0
      ints: 0
      ints: 0
      ints: 0
      type: INTS
    }
    attribute {
      name: "strides"
      ints: 1
      ints: 1
      type: INTS
    }
  }
  node {
    input: "/backbone/backbone/dark4/dark4.1/m/m.2/conv1/conv/Conv_output_0"
    output: "/backbone/backbone/dark4/dark4.1/m/m.2/conv1/act/Sigmoid_output_0"
    name: "/backbone/backbone/dark4/dark4.1/m/m.2/conv1/act/Sigmoid"
    op_type: "Sigmoid"
  }
  node {
    input: "/backbone/backbone/dark4/dark4.1/m/m.2/conv1/conv/Conv_output_0"
    input: "/backbone/backbone/dark4/dark4.1/m/m.2/conv1/act/Sigmoid_output_0"
    output: "/backbone/backbone/dark4/dark4.1/m/m.2/conv1/act/Mul_output_0"
    name: "/backbone/backbone/dark4/dark4.1/m/m.2/conv1/act/Mul"
    op_type: "Mul"
  }
  node {
    input: "/backbone/backbone/dark4/dark4.1/m/m.2/conv1/act/Mul_output_0"
    input: "onnx::Conv_943"
    input: "onnx::Conv_944"
    output: "/backbone/backbone/dark4/dark4.1/m/m.2/conv2/conv/Conv_output_0"
    name: "/backbone/backbone/dark4/dark4.1/m/m.2/conv2/conv/Conv"
    op_type: "Conv"
    attribute {
      name: "dilations"
      ints: 1
      ints: 1
      type: INTS
    }
    attribute {
      name: "group"
      i: 1
      type: INT
    }
    attribute {
      name: "kernel_shape"
      ints: 3
      ints: 3
      type: INTS
    }
    attribute {
      name: "pads"
      ints: 1
      ints: 1
      ints: 1
      ints: 1
      type: INTS
    }
    attribute {
      name: "strides"
      ints: 1
      ints: 1
      type: INTS
    }
  }
  node {
    input: "/backbone/backbone/dark4/dark4.1/m/m.2/conv2/conv/Conv_output_0"
    output: "/backbone/backbone/dark4/dark4.1/m/m.2/conv2/act/Sigmoid_output_0"
    name: "/backbone/backbone/dark4/dark4.1/m/m.2/conv2/act/Sigmoid"
    op_type: "Sigmoid"
  }
  node {
    input: "/backbone/backbone/dark4/dark4.1/m/m.2/conv2/conv/Conv_output_0"
    input: "/backbone/backbone/dark4/dark4.1/m/m.2/conv2/act/Sigmoid_output_0"
    output: "/backbone/backbone/dark4/dark4.1/m/m.2/conv2/act/Mul_output_0"
    name: "/backbone/backbone/dark4/dark4.1/m/m.2/conv2/act/Mul"
    op_type: "Mul"
  }
  node {
    input: "/backbone/backbone/dark4/dark4.1/m/m.2/conv2/act/Mul_output_0"
    input: "/backbone/backbone/dark4/dark4.1/m/m.1/Add_output_0"
    output: "/backbone/backbone/dark4/dark4.1/m/m.2/Add_output_0"
    name: "/backbone/backbone/dark4/dark4.1/m/m.2/Add"
    op_type: "Add"
  }
  node {
    input: "/backbone/backbone/dark4/dark4.1/m/m.2/Add_output_0"
    input: "/backbone/backbone/dark4/dark4.1/conv2/act/Mul_output_0"
    output: "/backbone/backbone/dark4/dark4.1/Concat_output_0"
    name: "/backbone/backbone/dark4/dark4.1/Concat"
    op_type: "Concat"
    attribute {
      name: "axis"
      i: 1
      type: INT
    }
  }
  node {
    input: "/backbone/backbone/dark4/dark4.1/Concat_output_0"
    input: "onnx::Conv_946"
    input: "onnx::Conv_947"
    output: "/backbone/backbone/dark4/dark4.1/conv3/conv/Conv_output_0"
    name: "/backbone/backbone/dark4/dark4.1/conv3/conv/Conv"
    op_type: "Conv"
    attribute {
      name: "dilations"
      ints: 1
      ints: 1
      type: INTS
    }
    attribute {
      name: "group"
      i: 1
      type: INT
    }
    attribute {
      name: "kernel_shape"
      ints: 1
      ints: 1
      type: INTS
    }
    attribute {
      name: "pads"
      ints: 0
      ints: 0
      ints: 0
      ints: 0
      type: INTS
    }
    attribute {
      name: "strides"
      ints: 1
      ints: 1
      type: INTS
    }
  }
  node {
    input: "/backbone/backbone/dark4/dark4.1/conv3/conv/Conv_output_0"
    output: "/backbone/backbone/dark4/dark4.1/conv3/act/Sigmoid_output_0"
    name: "/backbone/backbone/dark4/dark4.1/conv3/act/Sigmoid"
    op_type: "Sigmoid"
  }
  node {
    input: "/backbone/backbone/dark4/dark4.1/conv3/conv/Conv_output_0"
    input: "/backbone/backbone/dark4/dark4.1/conv3/act/Sigmoid_output_0"
    output: "/backbone/backbone/dark4/dark4.1/conv3/act/Mul_output_0"
    name: "/backbone/backbone/dark4/dark4.1/conv3/act/Mul"
    op_type: "Mul"
  }
  node {
    input: "/backbone/backbone/dark4/dark4.1/conv3/act/Mul_output_0"
    input: "onnx::Conv_949"
    input: "onnx::Conv_950"
    output: "/backbone/backbone/dark5/dark5.0/conv/Conv_output_0"
    name: "/backbone/backbone/dark5/dark5.0/conv/Conv"
    op_type: "Conv"
    attribute {
      name: "dilations"
      ints: 1
      ints: 1
      type: INTS
    }
    attribute {
      name: "group"
      i: 1
      type: INT
    }
    attribute {
      name: "kernel_shape"
      ints: 3
      ints: 3
      type: INTS
    }
    attribute {
      name: "pads"
      ints: 1
      ints: 1
      ints: 1
      ints: 1
      type: INTS
    }
    attribute {
      name: "strides"
      ints: 2
      ints: 2
      type: INTS
    }
  }
  node {
    input: "/backbone/backbone/dark5/dark5.0/conv/Conv_output_0"
    output: "/backbone/backbone/dark5/dark5.0/act/Sigmoid_output_0"
    name: "/backbone/backbone/dark5/dark5.0/act/Sigmoid"
    op_type: "Sigmoid"
  }
  node {
    input: "/backbone/backbone/dark5/dark5.0/conv/Conv_output_0"
    input: "/backbone/backbone/dark5/dark5.0/act/Sigmoid_output_0"
    output: "/backbone/backbone/dark5/dark5.0/act/Mul_output_0"
    name: "/backbone/backbone/dark5/dark5.0/act/Mul"
    op_type: "Mul"
  }
  node {
    input: "/backbone/backbone/dark5/dark5.0/act/Mul_output_0"
    input: "onnx::Conv_952"
    input: "onnx::Conv_953"
    output: "/backbone/backbone/dark5/dark5.1/conv1/conv/Conv_output_0"
    name: "/backbone/backbone/dark5/dark5.1/conv1/conv/Conv"
    op_type: "Conv"
    attribute {
      name: "dilations"
      ints: 1
      ints: 1
      type: INTS
    }
    attribute {
      name: "group"
      i: 1
      type: INT
    }
    attribute {
      name: "kernel_shape"
      ints: 1
      ints: 1
      type: INTS
    }
    attribute {
      name: "pads"
      ints: 0
      ints: 0
      ints: 0
      ints: 0
      type: INTS
    }
    attribute {
      name: "strides"
      ints: 1
      ints: 1
      type: INTS
    }
  }
  node {
    input: "/backbone/backbone/dark5/dark5.1/conv1/conv/Conv_output_0"
    output: "/backbone/backbone/dark5/dark5.1/conv1/act/Sigmoid_output_0"
    name: "/backbone/backbone/dark5/dark5.1/conv1/act/Sigmoid"
    op_type: "Sigmoid"
  }
  node {
    input: "/backbone/backbone/dark5/dark5.1/conv1/conv/Conv_output_0"
    input: "/backbone/backbone/dark5/dark5.1/conv1/act/Sigmoid_output_0"
    output: "/backbone/backbone/dark5/dark5.1/conv1/act/Mul_output_0"
    name: "/backbone/backbone/dark5/dark5.1/conv1/act/Mul"
    op_type: "Mul"
  }
  node {
    input: "/backbone/backbone/dark5/dark5.1/conv1/act/Mul_output_0"
    output: "/backbone/backbone/dark5/dark5.1/m.0/MaxPool_output_0"
    name: "/backbone/backbone/dark5/dark5.1/m.0/MaxPool"
    op_type: "MaxPool"
    attribute {
      name: "ceil_mode"
      i: 0
      type: INT
    }
    attribute {
      name: "kernel_shape"
      ints: 5
      ints: 5
      type: INTS
    }
    attribute {
      name: "pads"
      ints: 2
      ints: 2
      ints: 2
      ints: 2
      type: INTS
    }
    attribute {
      name: "strides"
      ints: 1
      ints: 1
      type: INTS
    }
  }
  node {
    input: "/backbone/backbone/dark5/dark5.1/conv1/act/Mul_output_0"
    output: "/backbone/backbone/dark5/dark5.1/m.1/MaxPool_output_0"
    name: "/backbone/backbone/dark5/dark5.1/m.1/MaxPool"
    op_type: "MaxPool"
    attribute {
      name: "ceil_mode"
      i: 0
      type: INT
    }
    attribute {
      name: "kernel_shape"
      ints: 9
      ints: 9
      type: INTS
    }
    attribute {
      name: "pads"
      ints: 4
      ints: 4
      ints: 4
      ints: 4
      type: INTS
    }
    attribute {
      name: "strides"
      ints: 1
      ints: 1
      type: INTS
    }
  }
  node {
    input: "/backbone/backbone/dark5/dark5.1/conv1/act/Mul_output_0"
    output: "/backbone/backbone/dark5/dark5.1/m.2/MaxPool_output_0"
    name: "/backbone/backbone/dark5/dark5.1/m.2/MaxPool"
    op_type: "MaxPool"
    attribute {
      name: "ceil_mode"
      i: 0
      type: INT
    }
    attribute {
      name: "kernel_shape"
      ints: 13
      ints: 13
      type: INTS
    }
    attribute {
      name: "pads"
      ints: 6
      ints: 6
      ints: 6
      ints: 6
      type: INTS
    }
    attribute {
      name: "strides"
      ints: 1
      ints: 1
      type: INTS
    }
  }
  node {
    input: "/backbone/backbone/dark5/dark5.1/conv1/act/Mul_output_0"
    input: "/backbone/backbone/dark5/dark5.1/m.0/MaxPool_output_0"
    input: "/backbone/backbone/dark5/dark5.1/m.1/MaxPool_output_0"
    input: "/backbone/backbone/dark5/dark5.1/m.2/MaxPool_output_0"
    output: "/backbone/backbone/dark5/dark5.1/Concat_output_0"
    name: "/backbone/backbone/dark5/dark5.1/Concat"
    op_type: "Concat"
    attribute {
      name: "axis"
      i: 1
      type: INT
    }
  }
  node {
    input: "/backbone/backbone/dark5/dark5.1/Concat_output_0"
    input: "onnx::Conv_955"
    input: "onnx::Conv_956"
    output: "/backbone/backbone/dark5/dark5.1/conv2/conv/Conv_output_0"
    name: "/backbone/backbone/dark5/dark5.1/conv2/conv/Conv"
    op_type: "Conv"
    attribute {
      name: "dilations"
      ints: 1
      ints: 1
      type: INTS
    }
    attribute {
      name: "group"
      i: 1
      type: INT
    }
    attribute {
      name: "kernel_shape"
      ints: 1
      ints: 1
      type: INTS
    }
    attribute {
      name: "pads"
      ints: 0
      ints: 0
      ints: 0
      ints: 0
      type: INTS
    }
    attribute {
      name: "strides"
      ints: 1
      ints: 1
      type: INTS
    }
  }
  node {
    input: "/backbone/backbone/dark5/dark5.1/conv2/conv/Conv_output_0"
    output: "/backbone/backbone/dark5/dark5.1/conv2/act/Sigmoid_output_0"
    name: "/backbone/backbone/dark5/dark5.1/conv2/act/Sigmoid"
    op_type: "Sigmoid"
  }
  node {
    input: "/backbone/backbone/dark5/dark5.1/conv2/conv/Conv_output_0"
    input: "/backbone/backbone/dark5/dark5.1/conv2/act/Sigmoid_output_0"
    output: "/backbone/backbone/dark5/dark5.1/conv2/act/Mul_output_0"
    name: "/backbone/backbone/dark5/dark5.1/conv2/act/Mul"
    op_type: "Mul"
  }
  node {
    input: "/backbone/backbone/dark5/dark5.1/conv2/act/Mul_output_0"
    input: "onnx::Conv_958"
    input: "onnx::Conv_959"
    output: "/backbone/backbone/dark5/dark5.2/conv1/conv/Conv_output_0"
    name: "/backbone/backbone/dark5/dark5.2/conv1/conv/Conv"
    op_type: "Conv"
    attribute {
      name: "dilations"
      ints: 1
      ints: 1
      type: INTS
    }
    attribute {
      name: "group"
      i: 1
      type: INT
    }
    attribute {
      name: "kernel_shape"
      ints: 1
      ints: 1
      type: INTS
    }
    attribute {
      name: "pads"
      ints: 0
      ints: 0
      ints: 0
      ints: 0
      type: INTS
    }
    attribute {
      name: "strides"
      ints: 1
      ints: 1
      type: INTS
    }
  }
  node {
    input: "/backbone/backbone/dark5/dark5.2/conv1/conv/Conv_output_0"
    output: "/backbone/backbone/dark5/dark5.2/conv1/act/Sigmoid_output_0"
    name: "/backbone/backbone/dark5/dark5.2/conv1/act/Sigmoid"
    op_type: "Sigmoid"
  }
  node {
    input: "/backbone/backbone/dark5/dark5.2/conv1/conv/Conv_output_0"
    input: "/backbone/backbone/dark5/dark5.2/conv1/act/Sigmoid_output_0"
    output: "/backbone/backbone/dark5/dark5.2/conv1/act/Mul_output_0"
    name: "/backbone/backbone/dark5/dark5.2/conv1/act/Mul"
    op_type: "Mul"
  }
  node {
    input: "/backbone/backbone/dark5/dark5.1/conv2/act/Mul_output_0"
    input: "onnx::Conv_961"
    input: "onnx::Conv_962"
    output: "/backbone/backbone/dark5/dark5.2/conv2/conv/Conv_output_0"
    name: "/backbone/backbone/dark5/dark5.2/conv2/conv/Conv"
    op_type: "Conv"
    attribute {
      name: "dilations"
      ints: 1
      ints: 1
      type: INTS
    }
    attribute {
      name: "group"
      i: 1
      type: INT
    }
    attribute {
      name: "kernel_shape"
      ints: 1
      ints: 1
      type: INTS
    }
    attribute {
      name: "pads"
      ints: 0
      ints: 0
      ints: 0
      ints: 0
      type: INTS
    }
    attribute {
      name: "strides"
      ints: 1
      ints: 1
      type: INTS
    }
  }
  node {
    input: "/backbone/backbone/dark5/dark5.2/conv2/conv/Conv_output_0"
    output: "/backbone/backbone/dark5/dark5.2/conv2/act/Sigmoid_output_0"
    name: "/backbone/backbone/dark5/dark5.2/conv2/act/Sigmoid"
    op_type: "Sigmoid"
  }
  node {
    input: "/backbone/backbone/dark5/dark5.2/conv2/conv/Conv_output_0"
    input: "/backbone/backbone/dark5/dark5.2/conv2/act/Sigmoid_output_0"
    output: "/backbone/backbone/dark5/dark5.2/conv2/act/Mul_output_0"
    name: "/backbone/backbone/dark5/dark5.2/conv2/act/Mul"
    op_type: "Mul"
  }
  node {
    input: "/backbone/backbone/dark5/dark5.2/conv1/act/Mul_output_0"
    input: "onnx::Conv_964"
    input: "onnx::Conv_965"
    output: "/backbone/backbone/dark5/dark5.2/m/m.0/conv1/conv/Conv_output_0"
    name: "/backbone/backbone/dark5/dark5.2/m/m.0/conv1/conv/Conv"
    op_type: "Conv"
    attribute {
      name: "dilations"
      ints: 1
      ints: 1
      type: INTS
    }
    attribute {
      name: "group"
      i: 1
      type: INT
    }
    attribute {
      name: "kernel_shape"
      ints: 1
      ints: 1
      type: INTS
    }
    attribute {
      name: "pads"
      ints: 0
      ints: 0
      ints: 0
      ints: 0
      type: INTS
    }
    attribute {
      name: "strides"
      ints: 1
      ints: 1
      type: INTS
    }
  }
  node {
    input: "/backbone/backbone/dark5/dark5.2/m/m.0/conv1/conv/Conv_output_0"
    output: "/backbone/backbone/dark5/dark5.2/m/m.0/conv1/act/Sigmoid_output_0"
    name: "/backbone/backbone/dark5/dark5.2/m/m.0/conv1/act/Sigmoid"
    op_type: "Sigmoid"
  }
  node {
    input: "/backbone/backbone/dark5/dark5.2/m/m.0/conv1/conv/Conv_output_0"
    input: "/backbone/backbone/dark5/dark5.2/m/m.0/conv1/act/Sigmoid_output_0"
    output: "/backbone/backbone/dark5/dark5.2/m/m.0/conv1/act/Mul_output_0"
    name: "/backbone/backbone/dark5/dark5.2/m/m.0/conv1/act/Mul"
    op_type: "Mul"
  }
  node {
    input: "/backbone/backbone/dark5/dark5.2/m/m.0/conv1/act/Mul_output_0"
    input: "onnx::Conv_967"
    input: "onnx::Conv_968"
    output: "/backbone/backbone/dark5/dark5.2/m/m.0/conv2/conv/Conv_output_0"
    name: "/backbone/backbone/dark5/dark5.2/m/m.0/conv2/conv/Conv"
    op_type: "Conv"
    attribute {
      name: "dilations"
      ints: 1
      ints: 1
      type: INTS
    }
    attribute {
      name: "group"
      i: 1
      type: INT
    }
    attribute {
      name: "kernel_shape"
      ints: 3
      ints: 3
      type: INTS
    }
    attribute {
      name: "pads"
      ints: 1
      ints: 1
      ints: 1
      ints: 1
      type: INTS
    }
    attribute {
      name: "strides"
      ints: 1
      ints: 1
      type: INTS
    }
  }
  node {
    input: "/backbone/backbone/dark5/dark5.2/m/m.0/conv2/conv/Conv_output_0"
    output: "/backbone/backbone/dark5/dark5.2/m/m.0/conv2/act/Sigmoid_output_0"
    name: "/backbone/backbone/dark5/dark5.2/m/m.0/conv2/act/Sigmoid"
    op_type: "Sigmoid"
  }
  node {
    input: "/backbone/backbone/dark5/dark5.2/m/m.0/conv2/conv/Conv_output_0"
    input: "/backbone/backbone/dark5/dark5.2/m/m.0/conv2/act/Sigmoid_output_0"
    output: "/backbone/backbone/dark5/dark5.2/m/m.0/conv2/act/Mul_output_0"
    name: "/backbone/backbone/dark5/dark5.2/m/m.0/conv2/act/Mul"
    op_type: "Mul"
  }
  node {
    input: "/backbone/backbone/dark5/dark5.2/m/m.0/conv2/act/Mul_output_0"
    input: "/backbone/backbone/dark5/dark5.2/conv2/act/Mul_output_0"
    output: "/backbone/backbone/dark5/dark5.2/Concat_output_0"
    name: "/backbone/backbone/dark5/dark5.2/Concat"
    op_type: "Concat"
    attribute {
      name: "axis"
      i: 1
      type: INT
    }
  }
  node {
    input: "/backbone/backbone/dark5/dark5.2/Concat_output_0"
    input: "onnx::Conv_970"
    input: "onnx::Conv_971"
    output: "/backbone/backbone/dark5/dark5.2/conv3/conv/Conv_output_0"
    name: "/backbone/backbone/dark5/dark5.2/conv3/conv/Conv"
    op_type: "Conv"
    attribute {
      name: "dilations"
      ints: 1
      ints: 1
      type: INTS
    }
    attribute {
      name: "group"
      i: 1
      type: INT
    }
    attribute {
      name: "kernel_shape"
      ints: 1
      ints: 1
      type: INTS
    }
    attribute {
      name: "pads"
      ints: 0
      ints: 0
      ints: 0
      ints: 0
      type: INTS
    }
    attribute {
      name: "strides"
      ints: 1
      ints: 1
      type: INTS
    }
  }
  node {
    input: "/backbone/backbone/dark5/dark5.2/conv3/conv/Conv_output_0"
    output: "/backbone/backbone/dark5/dark5.2/conv3/act/Sigmoid_output_0"
    name: "/backbone/backbone/dark5/dark5.2/conv3/act/Sigmoid"
    op_type: "Sigmoid"
  }
  node {
    input: "/backbone/backbone/dark5/dark5.2/conv3/conv/Conv_output_0"
    input: "/backbone/backbone/dark5/dark5.2/conv3/act/Sigmoid_output_0"
    output: "/backbone/backbone/dark5/dark5.2/conv3/act/Mul_output_0"
    name: "/backbone/backbone/dark5/dark5.2/conv3/act/Mul"
    op_type: "Mul"
  }
  node {
    input: "/backbone/backbone/dark5/dark5.2/conv3/act/Mul_output_0"
    input: "onnx::Conv_973"
    input: "onnx::Conv_974"
    output: "/backbone/lateral_conv0/conv/Conv_output_0"
    name: "/backbone/lateral_conv0/conv/Conv"
    op_type: "Conv"
    attribute {
      name: "dilations"
      ints: 1
      ints: 1
      type: INTS
    }
    attribute {
      name: "group"
      i: 1
      type: INT
    }
    attribute {
      name: "kernel_shape"
      ints: 1
      ints: 1
      type: INTS
    }
    attribute {
      name: "pads"
      ints: 0
      ints: 0
      ints: 0
      ints: 0
      type: INTS
    }
    attribute {
      name: "strides"
      ints: 1
      ints: 1
      type: INTS
    }
  }
  node {
    input: "/backbone/lateral_conv0/conv/Conv_output_0"
    output: "/backbone/lateral_conv0/act/Sigmoid_output_0"
    name: "/backbone/lateral_conv0/act/Sigmoid"
    op_type: "Sigmoid"
  }
  node {
    input: "/backbone/lateral_conv0/conv/Conv_output_0"
    input: "/backbone/lateral_conv0/act/Sigmoid_output_0"
    output: "/backbone/lateral_conv0/act/Mul_output_0"
    name: "/backbone/lateral_conv0/act/Mul"
    op_type: "Mul"
  }
  node {
    input: "/backbone/lateral_conv0/act/Mul_output_0"
    input: "/backbone/upsample/Constant_1_output_0"
    input: "/backbone/upsample/Constant_output_0"
    output: "/backbone/upsample/Resize_output_0"
    name: "/backbone/upsample/Resize"
    op_type: "Resize"
    attribute {
      name: "coordinate_transformation_mode"
      s: "asymmetric"
      type: STRING
    }
    attribute {
      name: "cubic_coeff_a"
      f: -0.75
      type: FLOAT
    }
    attribute {
      name: "mode"
      s: "nearest"
      type: STRING
    }
    attribute {
      name: "nearest_mode"
      s: "floor"
      type: STRING
    }
  }
  node {
    input: "/backbone/upsample/Resize_output_0"
    input: "/backbone/backbone/dark4/dark4.1/conv3/act/Mul_output_0"
    output: "/backbone/Concat_output_0"
    name: "/backbone/Concat"
    op_type: "Concat"
    attribute {
      name: "axis"
      i: 1
      type: INT
    }
  }
  node {
    input: "/backbone/Concat_output_0"
    input: "onnx::Conv_976"
    input: "onnx::Conv_977"
    output: "/backbone/C3_p4/conv1/conv/Conv_output_0"
    name: "/backbone/C3_p4/conv1/conv/Conv"
    op_type: "Conv"
    attribute {
      name: "dilations"
      ints: 1
      ints: 1
      type: INTS
    }
    attribute {
      name: "group"
      i: 1
      type: INT
    }
    attribute {
      name: "kernel_shape"
      ints: 1
      ints: 1
      type: INTS
    }
    attribute {
      name: "pads"
      ints: 0
      ints: 0
      ints: 0
      ints: 0
      type: INTS
    }
    attribute {
      name: "strides"
      ints: 1
      ints: 1
      type: INTS
    }
  }
  node {
    input: "/backbone/C3_p4/conv1/conv/Conv_output_0"
    output: "/backbone/C3_p4/conv1/act/Sigmoid_output_0"
    name: "/backbone/C3_p4/conv1/act/Sigmoid"
    op_type: "Sigmoid"
  }
  node {
    input: "/backbone/C3_p4/conv1/conv/Conv_output_0"
    input: "/backbone/C3_p4/conv1/act/Sigmoid_output_0"
    output: "/backbone/C3_p4/conv1/act/Mul_output_0"
    name: "/backbone/C3_p4/conv1/act/Mul"
    op_type: "Mul"
  }
  node {
    input: "/backbone/Concat_output_0"
    input: "onnx::Conv_979"
    input: "onnx::Conv_980"
    output: "/backbone/C3_p4/conv2/conv/Conv_output_0"
    name: "/backbone/C3_p4/conv2/conv/Conv"
    op_type: "Conv"
    attribute {
      name: "dilations"
      ints: 1
      ints: 1
      type: INTS
    }
    attribute {
      name: "group"
      i: 1
      type: INT
    }
    attribute {
      name: "kernel_shape"
      ints: 1
      ints: 1
      type: INTS
    }
    attribute {
      name: "pads"
      ints: 0
      ints: 0
      ints: 0
      ints: 0
      type: INTS
    }
    attribute {
      name: "strides"
      ints: 1
      ints: 1
      type: INTS
    }
  }
  node {
    input: "/backbone/C3_p4/conv2/conv/Conv_output_0"
    output: "/backbone/C3_p4/conv2/act/Sigmoid_output_0"
    name: "/backbone/C3_p4/conv2/act/Sigmoid"
    op_type: "Sigmoid"
  }
  node {
    input: "/backbone/C3_p4/conv2/conv/Conv_output_0"
    input: "/backbone/C3_p4/conv2/act/Sigmoid_output_0"
    output: "/backbone/C3_p4/conv2/act/Mul_output_0"
    name: "/backbone/C3_p4/conv2/act/Mul"
    op_type: "Mul"
  }
  node {
    input: "/backbone/C3_p4/conv1/act/Mul_output_0"
    input: "onnx::Conv_982"
    input: "onnx::Conv_983"
    output: "/backbone/C3_p4/m/m.0/conv1/conv/Conv_output_0"
    name: "/backbone/C3_p4/m/m.0/conv1/conv/Conv"
    op_type: "Conv"
    attribute {
      name: "dilations"
      ints: 1
      ints: 1
      type: INTS
    }
    attribute {
      name: "group"
      i: 1
      type: INT
    }
    attribute {
      name: "kernel_shape"
      ints: 1
      ints: 1
      type: INTS
    }
    attribute {
      name: "pads"
      ints: 0
      ints: 0
      ints: 0
      ints: 0
      type: INTS
    }
    attribute {
      name: "strides"
      ints: 1
      ints: 1
      type: INTS
    }
  }
  node {
    input: "/backbone/C3_p4/m/m.0/conv1/conv/Conv_output_0"
    output: "/backbone/C3_p4/m/m.0/conv1/act/Sigmoid_output_0"
    name: "/backbone/C3_p4/m/m.0/conv1/act/Sigmoid"
    op_type: "Sigmoid"
  }
  node {
    input: "/backbone/C3_p4/m/m.0/conv1/conv/Conv_output_0"
    input: "/backbone/C3_p4/m/m.0/conv1/act/Sigmoid_output_0"
    output: "/backbone/C3_p4/m/m.0/conv1/act/Mul_output_0"
    name: "/backbone/C3_p4/m/m.0/conv1/act/Mul"
    op_type: "Mul"
  }
  node {
    input: "/backbone/C3_p4/m/m.0/conv1/act/Mul_output_0"
    input: "onnx::Conv_985"
    input: "onnx::Conv_986"
    output: "/backbone/C3_p4/m/m.0/conv2/conv/Conv_output_0"
    name: "/backbone/C3_p4/m/m.0/conv2/conv/Conv"
    op_type: "Conv"
    attribute {
      name: "dilations"
      ints: 1
      ints: 1
      type: INTS
    }
    attribute {
      name: "group"
      i: 1
      type: INT
    }
    attribute {
      name: "kernel_shape"
      ints: 3
      ints: 3
      type: INTS
    }
    attribute {
      name: "pads"
      ints: 1
      ints: 1
      ints: 1
      ints: 1
      type: INTS
    }
    attribute {
      name: "strides"
      ints: 1
      ints: 1
      type: INTS
    }
  }
  node {
    input: "/backbone/C3_p4/m/m.0/conv2/conv/Conv_output_0"
    output: "/backbone/C3_p4/m/m.0/conv2/act/Sigmoid_output_0"
    name: "/backbone/C3_p4/m/m.0/conv2/act/Sigmoid"
    op_type: "Sigmoid"
  }
  node {
    input: "/backbone/C3_p4/m/m.0/conv2/conv/Conv_output_0"
    input: "/backbone/C3_p4/m/m.0/conv2/act/Sigmoid_output_0"
    output: "/backbone/C3_p4/m/m.0/conv2/act/Mul_output_0"
    name: "/backbone/C3_p4/m/m.0/conv2/act/Mul"
    op_type: "Mul"
  }
  node {
    input: "/backbone/C3_p4/m/m.0/conv2/act/Mul_output_0"
    input: "/backbone/C3_p4/conv2/act/Mul_output_0"
    output: "/backbone/C3_p4/Concat_output_0"
    name: "/backbone/C3_p4/Concat"
    op_type: "Concat"
    attribute {
      name: "axis"
      i: 1
      type: INT
    }
  }
  node {
    input: "/backbone/C3_p4/Concat_output_0"
    input: "onnx::Conv_988"
    input: "onnx::Conv_989"
    output: "/backbone/C3_p4/conv3/conv/Conv_output_0"
    name: "/backbone/C3_p4/conv3/conv/Conv"
    op_type: "Conv"
    attribute {
      name: "dilations"
      ints: 1
      ints: 1
      type: INTS
    }
    attribute {
      name: "group"
      i: 1
      type: INT
    }
    attribute {
      name: "kernel_shape"
      ints: 1
      ints: 1
      type: INTS
    }
    attribute {
      name: "pads"
      ints: 0
      ints: 0
      ints: 0
      ints: 0
      type: INTS
    }
    attribute {
      name: "strides"
      ints: 1
      ints: 1
      type: INTS
    }
  }
  node {
    input: "/backbone/C3_p4/conv3/conv/Conv_output_0"
    output: "/backbone/C3_p4/conv3/act/Sigmoid_output_0"
    name: "/backbone/C3_p4/conv3/act/Sigmoid"
    op_type: "Sigmoid"
  }
  node {
    input: "/backbone/C3_p4/conv3/conv/Conv_output_0"
    input: "/backbone/C3_p4/conv3/act/Sigmoid_output_0"
    output: "/backbone/C3_p4/conv3/act/Mul_output_0"
    name: "/backbone/C3_p4/conv3/act/Mul"
    op_type: "Mul"
  }
  node {
    input: "/backbone/C3_p4/conv3/act/Mul_output_0"
    input: "onnx::Conv_991"
    input: "onnx::Conv_992"
    output: "/backbone/reduce_conv1/conv/Conv_output_0"
    name: "/backbone/reduce_conv1/conv/Conv"
    op_type: "Conv"
    attribute {
      name: "dilations"
      ints: 1
      ints: 1
      type: INTS
    }
    attribute {
      name: "group"
      i: 1
      type: INT
    }
    attribute {
      name: "kernel_shape"
      ints: 1
      ints: 1
      type: INTS
    }
    attribute {
      name: "pads"
      ints: 0
      ints: 0
      ints: 0
      ints: 0
      type: INTS
    }
    attribute {
      name: "strides"
      ints: 1
      ints: 1
      type: INTS
    }
  }
  node {
    input: "/backbone/reduce_conv1/conv/Conv_output_0"
    output: "/backbone/reduce_conv1/act/Sigmoid_output_0"
    name: "/backbone/reduce_conv1/act/Sigmoid"
    op_type: "Sigmoid"
  }
  node {
    input: "/backbone/reduce_conv1/conv/Conv_output_0"
    input: "/backbone/reduce_conv1/act/Sigmoid_output_0"
    output: "/backbone/reduce_conv1/act/Mul_output_0"
    name: "/backbone/reduce_conv1/act/Mul"
    op_type: "Mul"
  }
  node {
    input: "/backbone/reduce_conv1/act/Mul_output_0"
    input: "/backbone/upsample/Constant_1_output_0"
    input: "/backbone/upsample/Constant_output_0"
    output: "/backbone/upsample_1/Resize_output_0"
    name: "/backbone/upsample_1/Resize"
    op_type: "Resize"
    attribute {
      name: "coordinate_transformation_mode"
      s: "asymmetric"
      type: STRING
    }
    attribute {
      name: "cubic_coeff_a"
      f: -0.75
      type: FLOAT
    }
    attribute {
      name: "mode"
      s: "nearest"
      type: STRING
    }
    attribute {
      name: "nearest_mode"
      s: "floor"
      type: STRING
    }
  }
  node {
    input: "/backbone/upsample_1/Resize_output_0"
    input: "/backbone/backbone/dark3/dark3.1/conv3/act/Mul_output_0"
    output: "/backbone/Concat_1_output_0"
    name: "/backbone/Concat_1"
    op_type: "Concat"
    attribute {
      name: "axis"
      i: 1
      type: INT
    }
  }
  node {
    input: "/backbone/Concat_1_output_0"
    input: "onnx::Conv_994"
    input: "onnx::Conv_995"
    output: "/backbone/C3_p3/conv1/conv/Conv_output_0"
    name: "/backbone/C3_p3/conv1/conv/Conv"
    op_type: "Conv"
    attribute {
      name: "dilations"
      ints: 1
      ints: 1
      type: INTS
    }
    attribute {
      name: "group"
      i: 1
      type: INT
    }
    attribute {
      name: "kernel_shape"
      ints: 1
      ints: 1
      type: INTS
    }
    attribute {
      name: "pads"
      ints: 0
      ints: 0
      ints: 0
      ints: 0
      type: INTS
    }
    attribute {
      name: "strides"
      ints: 1
      ints: 1
      type: INTS
    }
  }
  node {
    input: "/backbone/C3_p3/conv1/conv/Conv_output_0"
    output: "/backbone/C3_p3/conv1/act/Sigmoid_output_0"
    name: "/backbone/C3_p3/conv1/act/Sigmoid"
    op_type: "Sigmoid"
  }
  node {
    input: "/backbone/C3_p3/conv1/conv/Conv_output_0"
    input: "/backbone/C3_p3/conv1/act/Sigmoid_output_0"
    output: "/backbone/C3_p3/conv1/act/Mul_output_0"
    name: "/backbone/C3_p3/conv1/act/Mul"
    op_type: "Mul"
  }
  node {
    input: "/backbone/Concat_1_output_0"
    input: "onnx::Conv_997"
    input: "onnx::Conv_998"
    output: "/backbone/C3_p3/conv2/conv/Conv_output_0"
    name: "/backbone/C3_p3/conv2/conv/Conv"
    op_type: "Conv"
    attribute {
      name: "dilations"
      ints: 1
      ints: 1
      type: INTS
    }
    attribute {
      name: "group"
      i: 1
      type: INT
    }
    attribute {
      name: "kernel_shape"
      ints: 1
      ints: 1
      type: INTS
    }
    attribute {
      name: "pads"
      ints: 0
      ints: 0
      ints: 0
      ints: 0
      type: INTS
    }
    attribute {
      name: "strides"
      ints: 1
      ints: 1
      type: INTS
    }
  }
  node {
    input: "/backbone/C3_p3/conv2/conv/Conv_output_0"
    output: "/backbone/C3_p3/conv2/act/Sigmoid_output_0"
    name: "/backbone/C3_p3/conv2/act/Sigmoid"
    op_type: "Sigmoid"
  }
  node {
    input: "/backbone/C3_p3/conv2/conv/Conv_output_0"
    input: "/backbone/C3_p3/conv2/act/Sigmoid_output_0"
    output: "/backbone/C3_p3/conv2/act/Mul_output_0"
    name: "/backbone/C3_p3/conv2/act/Mul"
    op_type: "Mul"
  }
  node {
    input: "/backbone/C3_p3/conv1/act/Mul_output_0"
    input: "onnx::Conv_1000"
    input: "onnx::Conv_1001"
    output: "/backbone/C3_p3/m/m.0/conv1/conv/Conv_output_0"
    name: "/backbone/C3_p3/m/m.0/conv1/conv/Conv"
    op_type: "Conv"
    attribute {
      name: "dilations"
      ints: 1
      ints: 1
      type: INTS
    }
    attribute {
      name: "group"
      i: 1
      type: INT
    }
    attribute {
      name: "kernel_shape"
      ints: 1
      ints: 1
      type: INTS
    }
    attribute {
      name: "pads"
      ints: 0
      ints: 0
      ints: 0
      ints: 0
      type: INTS
    }
    attribute {
      name: "strides"
      ints: 1
      ints: 1
      type: INTS
    }
  }
  node {
    input: "/backbone/C3_p3/m/m.0/conv1/conv/Conv_output_0"
    output: "/backbone/C3_p3/m/m.0/conv1/act/Sigmoid_output_0"
    name: "/backbone/C3_p3/m/m.0/conv1/act/Sigmoid"
    op_type: "Sigmoid"
  }
  node {
    input: "/backbone/C3_p3/m/m.0/conv1/conv/Conv_output_0"
    input: "/backbone/C3_p3/m/m.0/conv1/act/Sigmoid_output_0"
    output: "/backbone/C3_p3/m/m.0/conv1/act/Mul_output_0"
    name: "/backbone/C3_p3/m/m.0/conv1/act/Mul"
    op_type: "Mul"
  }
  node {
    input: "/backbone/C3_p3/m/m.0/conv1/act/Mul_output_0"
    input: "onnx::Conv_1003"
    input: "onnx::Conv_1004"
    output: "/backbone/C3_p3/m/m.0/conv2/conv/Conv_output_0"
    name: "/backbone/C3_p3/m/m.0/conv2/conv/Conv"
    op_type: "Conv"
    attribute {
      name: "dilations"
      ints: 1
      ints: 1
      type: INTS
    }
    attribute {
      name: "group"
      i: 1
      type: INT
    }
    attribute {
      name: "kernel_shape"
      ints: 3
      ints: 3
      type: INTS
    }
    attribute {
      name: "pads"
      ints: 1
      ints: 1
      ints: 1
      ints: 1
      type: INTS
    }
    attribute {
      name: "strides"
      ints: 1
      ints: 1
      type: INTS
    }
  }
  node {
    input: "/backbone/C3_p3/m/m.0/conv2/conv/Conv_output_0"
    output: "/backbone/C3_p3/m/m.0/conv2/act/Sigmoid_output_0"
    name: "/backbone/C3_p3/m/m.0/conv2/act/Sigmoid"
    op_type: "Sigmoid"
  }
  node {
    input: "/backbone/C3_p3/m/m.0/conv2/conv/Conv_output_0"
    input: "/backbone/C3_p3/m/m.0/conv2/act/Sigmoid_output_0"
    output: "/backbone/C3_p3/m/m.0/conv2/act/Mul_output_0"
    name: "/backbone/C3_p3/m/m.0/conv2/act/Mul"
    op_type: "Mul"
  }
  node {
    input: "/backbone/C3_p3/m/m.0/conv2/act/Mul_output_0"
    input: "/backbone/C3_p3/conv2/act/Mul_output_0"
    output: "/backbone/C3_p3/Concat_output_0"
    name: "/backbone/C3_p3/Concat"
    op_type: "Concat"
    attribute {
      name: "axis"
      i: 1
      type: INT
    }
  }
  node {
    input: "/backbone/C3_p3/Concat_output_0"
    input: "onnx::Conv_1006"
    input: "onnx::Conv_1007"
    output: "/backbone/C3_p3/conv3/conv/Conv_output_0"
    name: "/backbone/C3_p3/conv3/conv/Conv"
    op_type: "Conv"
    attribute {
      name: "dilations"
      ints: 1
      ints: 1
      type: INTS
    }
    attribute {
      name: "group"
      i: 1
      type: INT
    }
    attribute {
      name: "kernel_shape"
      ints: 1
      ints: 1
      type: INTS
    }
    attribute {
      name: "pads"
      ints: 0
      ints: 0
      ints: 0
      ints: 0
      type: INTS
    }
    attribute {
      name: "strides"
      ints: 1
      ints: 1
      type: INTS
    }
  }
  node {
    input: "/backbone/C3_p3/conv3/conv/Conv_output_0"
    output: "/backbone/C3_p3/conv3/act/Sigmoid_output_0"
    name: "/backbone/C3_p3/conv3/act/Sigmoid"
    op_type: "Sigmoid"
  }
  node {
    input: "/backbone/C3_p3/conv3/conv/Conv_output_0"
    input: "/backbone/C3_p3/conv3/act/Sigmoid_output_0"
    output: "/backbone/C3_p3/conv3/act/Mul_output_0"
    name: "/backbone/C3_p3/conv3/act/Mul"
    op_type: "Mul"
  }
  node {
    input: "/backbone/C3_p3/conv3/act/Mul_output_0"
    input: "onnx::Conv_1009"
    input: "onnx::Conv_1010"
    output: "/backbone/bu_conv2/conv/Conv_output_0"
    name: "/backbone/bu_conv2/conv/Conv"
    op_type: "Conv"
    attribute {
      name: "dilations"
      ints: 1
      ints: 1
      type: INTS
    }
    attribute {
      name: "group"
      i: 1
      type: INT
    }
    attribute {
      name: "kernel_shape"
      ints: 3
      ints: 3
      type: INTS
    }
    attribute {
      name: "pads"
      ints: 1
      ints: 1
      ints: 1
      ints: 1
      type: INTS
    }
    attribute {
      name: "strides"
      ints: 2
      ints: 2
      type: INTS
    }
  }
  node {
    input: "/backbone/bu_conv2/conv/Conv_output_0"
    output: "/backbone/bu_conv2/act/Sigmoid_output_0"
    name: "/backbone/bu_conv2/act/Sigmoid"
    op_type: "Sigmoid"
  }
  node {
    input: "/backbone/bu_conv2/conv/Conv_output_0"
    input: "/backbone/bu_conv2/act/Sigmoid_output_0"
    output: "/backbone/bu_conv2/act/Mul_output_0"
    name: "/backbone/bu_conv2/act/Mul"
    op_type: "Mul"
  }
  node {
    input: "/backbone/bu_conv2/act/Mul_output_0"
    input: "/backbone/reduce_conv1/act/Mul_output_0"
    output: "/backbone/Concat_2_output_0"
    name: "/backbone/Concat_2"
    op_type: "Concat"
    attribute {
      name: "axis"
      i: 1
      type: INT
    }
  }
  node {
    input: "/backbone/Concat_2_output_0"
    input: "onnx::Conv_1012"
    input: "onnx::Conv_1013"
    output: "/backbone/C3_n3/conv1/conv/Conv_output_0"
    name: "/backbone/C3_n3/conv1/conv/Conv"
    op_type: "Conv"
    attribute {
      name: "dilations"
      ints: 1
      ints: 1
      type: INTS
    }
    attribute {
      name: "group"
      i: 1
      type: INT
    }
    attribute {
      name: "kernel_shape"
      ints: 1
      ints: 1
      type: INTS
    }
    attribute {
      name: "pads"
      ints: 0
      ints: 0
      ints: 0
      ints: 0
      type: INTS
    }
    attribute {
      name: "strides"
      ints: 1
      ints: 1
      type: INTS
    }
  }
  node {
    input: "/backbone/C3_n3/conv1/conv/Conv_output_0"
    output: "/backbone/C3_n3/conv1/act/Sigmoid_output_0"
    name: "/backbone/C3_n3/conv1/act/Sigmoid"
    op_type: "Sigmoid"
  }
  node {
    input: "/backbone/C3_n3/conv1/conv/Conv_output_0"
    input: "/backbone/C3_n3/conv1/act/Sigmoid_output_0"
    output: "/backbone/C3_n3/conv1/act/Mul_output_0"
    name: "/backbone/C3_n3/conv1/act/Mul"
    op_type: "Mul"
  }
  node {
    input: "/backbone/Concat_2_output_0"
    input: "onnx::Conv_1015"
    input: "onnx::Conv_1016"
    output: "/backbone/C3_n3/conv2/conv/Conv_output_0"
    name: "/backbone/C3_n3/conv2/conv/Conv"
    op_type: "Conv"
    attribute {
      name: "dilations"
      ints: 1
      ints: 1
      type: INTS
    }
    attribute {
      name: "group"
      i: 1
      type: INT
    }
    attribute {
      name: "kernel_shape"
      ints: 1
      ints: 1
      type: INTS
    }
    attribute {
      name: "pads"
      ints: 0
      ints: 0
      ints: 0
      ints: 0
      type: INTS
    }
    attribute {
      name: "strides"
      ints: 1
      ints: 1
      type: INTS
    }
  }
  node {
    input: "/backbone/C3_n3/conv2/conv/Conv_output_0"
    output: "/backbone/C3_n3/conv2/act/Sigmoid_output_0"
    name: "/backbone/C3_n3/conv2/act/Sigmoid"
    op_type: "Sigmoid"
  }
  node {
    input: "/backbone/C3_n3/conv2/conv/Conv_output_0"
    input: "/backbone/C3_n3/conv2/act/Sigmoid_output_0"
    output: "/backbone/C3_n3/conv2/act/Mul_output_0"
    name: "/backbone/C3_n3/conv2/act/Mul"
    op_type: "Mul"
  }
  node {
    input: "/backbone/C3_n3/conv1/act/Mul_output_0"
    input: "onnx::Conv_1018"
    input: "onnx::Conv_1019"
    output: "/backbone/C3_n3/m/m.0/conv1/conv/Conv_output_0"
    name: "/backbone/C3_n3/m/m.0/conv1/conv/Conv"
    op_type: "Conv"
    attribute {
      name: "dilations"
      ints: 1
      ints: 1
      type: INTS
    }
    attribute {
      name: "group"
      i: 1
      type: INT
    }
    attribute {
      name: "kernel_shape"
      ints: 1
      ints: 1
      type: INTS
    }
    attribute {
      name: "pads"
      ints: 0
      ints: 0
      ints: 0
      ints: 0
      type: INTS
    }
    attribute {
      name: "strides"
      ints: 1
      ints: 1
      type: INTS
    }
  }
  node {
    input: "/backbone/C3_n3/m/m.0/conv1/conv/Conv_output_0"
    output: "/backbone/C3_n3/m/m.0/conv1/act/Sigmoid_output_0"
    name: "/backbone/C3_n3/m/m.0/conv1/act/Sigmoid"
    op_type: "Sigmoid"
  }
  node {
    input: "/backbone/C3_n3/m/m.0/conv1/conv/Conv_output_0"
    input: "/backbone/C3_n3/m/m.0/conv1/act/Sigmoid_output_0"
    output: "/backbone/C3_n3/m/m.0/conv1/act/Mul_output_0"
    name: "/backbone/C3_n3/m/m.0/conv1/act/Mul"
    op_type: "Mul"
  }
  node {
    input: "/backbone/C3_n3/m/m.0/conv1/act/Mul_output_0"
    input: "onnx::Conv_1021"
    input: "onnx::Conv_1022"
    output: "/backbone/C3_n3/m/m.0/conv2/conv/Conv_output_0"
    name: "/backbone/C3_n3/m/m.0/conv2/conv/Conv"
    op_type: "Conv"
    attribute {
      name: "dilations"
      ints: 1
      ints: 1
      type: INTS
    }
    attribute {
      name: "group"
      i: 1
      type: INT
    }
    attribute {
      name: "kernel_shape"
      ints: 3
      ints: 3
      type: INTS
    }
    attribute {
      name: "pads"
      ints: 1
      ints: 1
      ints: 1
      ints: 1
      type: INTS
    }
    attribute {
      name: "strides"
      ints: 1
      ints: 1
      type: INTS
    }
  }
  node {
    input: "/backbone/C3_n3/m/m.0/conv2/conv/Conv_output_0"
    output: "/backbone/C3_n3/m/m.0/conv2/act/Sigmoid_output_0"
    name: "/backbone/C3_n3/m/m.0/conv2/act/Sigmoid"
    op_type: "Sigmoid"
  }
  node {
    input: "/backbone/C3_n3/m/m.0/conv2/conv/Conv_output_0"
    input: "/backbone/C3_n3/m/m.0/conv2/act/Sigmoid_output_0"
    output: "/backbone/C3_n3/m/m.0/conv2/act/Mul_output_0"
    name: "/backbone/C3_n3/m/m.0/conv2/act/Mul"
    op_type: "Mul"
  }
  node {
    input: "/backbone/C3_n3/m/m.0/conv2/act/Mul_output_0"
    input: "/backbone/C3_n3/conv2/act/Mul_output_0"
    output: "/backbone/C3_n3/Concat_output_0"
    name: "/backbone/C3_n3/Concat"
    op_type: "Concat"
    attribute {
      name: "axis"
      i: 1
      type: INT
    }
  }
  node {
    input: "/backbone/C3_n3/Concat_output_0"
    input: "onnx::Conv_1024"
    input: "onnx::Conv_1025"
    output: "/backbone/C3_n3/conv3/conv/Conv_output_0"
    name: "/backbone/C3_n3/conv3/conv/Conv"
    op_type: "Conv"
    attribute {
      name: "dilations"
      ints: 1
      ints: 1
      type: INTS
    }
    attribute {
      name: "group"
      i: 1
      type: INT
    }
    attribute {
      name: "kernel_shape"
      ints: 1
      ints: 1
      type: INTS
    }
    attribute {
      name: "pads"
      ints: 0
      ints: 0
      ints: 0
      ints: 0
      type: INTS
    }
    attribute {
      name: "strides"
      ints: 1
      ints: 1
      type: INTS
    }
  }
  node {
    input: "/backbone/C3_n3/conv3/conv/Conv_output_0"
    output: "/backbone/C3_n3/conv3/act/Sigmoid_output_0"
    name: "/backbone/C3_n3/conv3/act/Sigmoid"
    op_type: "Sigmoid"
  }
  node {
    input: "/backbone/C3_n3/conv3/conv/Conv_output_0"
    input: "/backbone/C3_n3/conv3/act/Sigmoid_output_0"
    output: "/backbone/C3_n3/conv3/act/Mul_output_0"
    name: "/backbone/C3_n3/conv3/act/Mul"
    op_type: "Mul"
  }
  node {
    input: "/backbone/C3_n3/conv3/act/Mul_output_0"
    input: "onnx::Conv_1027"
    input: "onnx::Conv_1028"
    output: "/backbone/bu_conv1/conv/Conv_output_0"
    name: "/backbone/bu_conv1/conv/Conv"
    op_type: "Conv"
    attribute {
      name: "dilations"
      ints: 1
      ints: 1
      type: INTS
    }
    attribute {
      name: "group"
      i: 1
      type: INT
    }
    attribute {
      name: "kernel_shape"
      ints: 3
      ints: 3
      type: INTS
    }
    attribute {
      name: "pads"
      ints: 1
      ints: 1
      ints: 1
      ints: 1
      type: INTS
    }
    attribute {
      name: "strides"
      ints: 2
      ints: 2
      type: INTS
    }
  }
  node {
    input: "/backbone/bu_conv1/conv/Conv_output_0"
    output: "/backbone/bu_conv1/act/Sigmoid_output_0"
    name: "/backbone/bu_conv1/act/Sigmoid"
    op_type: "Sigmoid"
  }
  node {
    input: "/backbone/bu_conv1/conv/Conv_output_0"
    input: "/backbone/bu_conv1/act/Sigmoid_output_0"
    output: "/backbone/bu_conv1/act/Mul_output_0"
    name: "/backbone/bu_conv1/act/Mul"
    op_type: "Mul"
  }
  node {
    input: "/backbone/bu_conv1/act/Mul_output_0"
    input: "/backbone/lateral_conv0/act/Mul_output_0"
    output: "/backbone/Concat_3_output_0"
    name: "/backbone/Concat_3"
    op_type: "Concat"
    attribute {
      name: "axis"
      i: 1
      type: INT
    }
  }
  node {
    input: "/backbone/Concat_3_output_0"
    input: "onnx::Conv_1030"
    input: "onnx::Conv_1031"
    output: "/backbone/C3_n4/conv1/conv/Conv_output_0"
    name: "/backbone/C3_n4/conv1/conv/Conv"
    op_type: "Conv"
    attribute {
      name: "dilations"
      ints: 1
      ints: 1
      type: INTS
    }
    attribute {
      name: "group"
      i: 1
      type: INT
    }
    attribute {
      name: "kernel_shape"
      ints: 1
      ints: 1
      type: INTS
    }
    attribute {
      name: "pads"
      ints: 0
      ints: 0
      ints: 0
      ints: 0
      type: INTS
    }
    attribute {
      name: "strides"
      ints: 1
      ints: 1
      type: INTS
    }
  }
  node {
    input: "/backbone/C3_n4/conv1/conv/Conv_output_0"
    output: "/backbone/C3_n4/conv1/act/Sigmoid_output_0"
    name: "/backbone/C3_n4/conv1/act/Sigmoid"
    op_type: "Sigmoid"
  }
  node {
    input: "/backbone/C3_n4/conv1/conv/Conv_output_0"
    input: "/backbone/C3_n4/conv1/act/Sigmoid_output_0"
    output: "/backbone/C3_n4/conv1/act/Mul_output_0"
    name: "/backbone/C3_n4/conv1/act/Mul"
    op_type: "Mul"
  }
  node {
    input: "/backbone/Concat_3_output_0"
    input: "onnx::Conv_1033"
    input: "onnx::Conv_1034"
    output: "/backbone/C3_n4/conv2/conv/Conv_output_0"
    name: "/backbone/C3_n4/conv2/conv/Conv"
    op_type: "Conv"
    attribute {
      name: "dilations"
      ints: 1
      ints: 1
      type: INTS
    }
    attribute {
      name: "group"
      i: 1
      type: INT
    }
    attribute {
      name: "kernel_shape"
      ints: 1
      ints: 1
      type: INTS
    }
    attribute {
      name: "pads"
      ints: 0
      ints: 0
      ints: 0
      ints: 0
      type: INTS
    }
    attribute {
      name: "strides"
      ints: 1
      ints: 1
      type: INTS
    }
  }
  node {
    input: "/backbone/C3_n4/conv2/conv/Conv_output_0"
    output: "/backbone/C3_n4/conv2/act/Sigmoid_output_0"
    name: "/backbone/C3_n4/conv2/act/Sigmoid"
    op_type: "Sigmoid"
  }
  node {
    input: "/backbone/C3_n4/conv2/conv/Conv_output_0"
    input: "/backbone/C3_n4/conv2/act/Sigmoid_output_0"
    output: "/backbone/C3_n4/conv2/act/Mul_output_0"
    name: "/backbone/C3_n4/conv2/act/Mul"
    op_type: "Mul"
  }
  node {
    input: "/backbone/C3_n4/conv1/act/Mul_output_0"
    input: "onnx::Conv_1036"
    input: "onnx::Conv_1037"
    output: "/backbone/C3_n4/m/m.0/conv1/conv/Conv_output_0"
    name: "/backbone/C3_n4/m/m.0/conv1/conv/Conv"
    op_type: "Conv"
    attribute {
      name: "dilations"
      ints: 1
      ints: 1
      type: INTS
    }
    attribute {
      name: "group"
      i: 1
      type: INT
    }
    attribute {
      name: "kernel_shape"
      ints: 1
      ints: 1
      type: INTS
    }
    attribute {
      name: "pads"
      ints: 0
      ints: 0
      ints: 0
      ints: 0
      type: INTS
    }
    attribute {
      name: "strides"
      ints: 1
      ints: 1
      type: INTS
    }
  }
  node {
    input: "/backbone/C3_n4/m/m.0/conv1/conv/Conv_output_0"
    output: "/backbone/C3_n4/m/m.0/conv1/act/Sigmoid_output_0"
    name: "/backbone/C3_n4/m/m.0/conv1/act/Sigmoid"
    op_type: "Sigmoid"
  }
  node {
    input: "/backbone/C3_n4/m/m.0/conv1/conv/Conv_output_0"
    input: "/backbone/C3_n4/m/m.0/conv1/act/Sigmoid_output_0"
    output: "/backbone/C3_n4/m/m.0/conv1/act/Mul_output_0"
    name: "/backbone/C3_n4/m/m.0/conv1/act/Mul"
    op_type: "Mul"
  }
  node {
    input: "/backbone/C3_n4/m/m.0/conv1/act/Mul_output_0"
    input: "onnx::Conv_1039"
    input: "onnx::Conv_1040"
    output: "/backbone/C3_n4/m/m.0/conv2/conv/Conv_output_0"
    name: "/backbone/C3_n4/m/m.0/conv2/conv/Conv"
    op_type: "Conv"
    attribute {
      name: "dilations"
      ints: 1
      ints: 1
      type: INTS
    }
    attribute {
      name: "group"
      i: 1
      type: INT
    }
    attribute {
      name: "kernel_shape"
      ints: 3
      ints: 3
      type: INTS
    }
    attribute {
      name: "pads"
      ints: 1
      ints: 1
      ints: 1
      ints: 1
      type: INTS
    }
    attribute {
      name: "strides"
      ints: 1
      ints: 1
      type: INTS
    }
  }
  node {
    input: "/backbone/C3_n4/m/m.0/conv2/conv/Conv_output_0"
    output: "/backbone/C3_n4/m/m.0/conv2/act/Sigmoid_output_0"
    name: "/backbone/C3_n4/m/m.0/conv2/act/Sigmoid"
    op_type: "Sigmoid"
  }
  node {
    input: "/backbone/C3_n4/m/m.0/conv2/conv/Conv_output_0"
    input: "/backbone/C3_n4/m/m.0/conv2/act/Sigmoid_output_0"
    output: "/backbone/C3_n4/m/m.0/conv2/act/Mul_output_0"
    name: "/backbone/C3_n4/m/m.0/conv2/act/Mul"
    op_type: "Mul"
  }
  node {
    input: "/backbone/C3_n4/m/m.0/conv2/act/Mul_output_0"
    input: "/backbone/C3_n4/conv2/act/Mul_output_0"
    output: "/backbone/C3_n4/Concat_output_0"
    name: "/backbone/C3_n4/Concat"
    op_type: "Concat"
    attribute {
      name: "axis"
      i: 1
      type: INT
    }
  }
  node {
    input: "/backbone/C3_n4/Concat_output_0"
    input: "onnx::Conv_1042"
    input: "onnx::Conv_1043"
    output: "/backbone/C3_n4/conv3/conv/Conv_output_0"
    name: "/backbone/C3_n4/conv3/conv/Conv"
    op_type: "Conv"
    attribute {
      name: "dilations"
      ints: 1
      ints: 1
      type: INTS
    }
    attribute {
      name: "group"
      i: 1
      type: INT
    }
    attribute {
      name: "kernel_shape"
      ints: 1
      ints: 1
      type: INTS
    }
    attribute {
      name: "pads"
      ints: 0
      ints: 0
      ints: 0
      ints: 0
      type: INTS
    }
    attribute {
      name: "strides"
      ints: 1
      ints: 1
      type: INTS
    }
  }
  node {
    input: "/backbone/C3_n4/conv3/conv/Conv_output_0"
    output: "/backbone/C3_n4/conv3/act/Sigmoid_output_0"
    name: "/backbone/C3_n4/conv3/act/Sigmoid"
    op_type: "Sigmoid"
  }
  node {
    input: "/backbone/C3_n4/conv3/conv/Conv_output_0"
    input: "/backbone/C3_n4/conv3/act/Sigmoid_output_0"
    output: "/backbone/C3_n4/conv3/act/Mul_output_0"
    name: "/backbone/C3_n4/conv3/act/Mul"
    op_type: "Mul"
  }
  node {
    input: "/backbone/C3_p3/conv3/act/Mul_output_0"
    input: "onnx::Conv_1045"
    input: "onnx::Conv_1046"
    output: "/head/stems.0/conv/Conv_output_0"
    name: "/head/stems.0/conv/Conv"
    op_type: "Conv"
    attribute {
      name: "dilations"
      ints: 1
      ints: 1
      type: INTS
    }
    attribute {
      name: "group"
      i: 1
      type: INT
    }
    attribute {
      name: "kernel_shape"
      ints: 1
      ints: 1
      type: INTS
    }
    attribute {
      name: "pads"
      ints: 0
      ints: 0
      ints: 0
      ints: 0
      type: INTS
    }
    attribute {
      name: "strides"
      ints: 1
      ints: 1
      type: INTS
    }
  }
  node {
    input: "/head/stems.0/conv/Conv_output_0"
    output: "/head/stems.0/act/Sigmoid_output_0"
    name: "/head/stems.0/act/Sigmoid"
    op_type: "Sigmoid"
  }
  node {
    input: "/head/stems.0/conv/Conv_output_0"
    input: "/head/stems.0/act/Sigmoid_output_0"
    output: "/head/stems.0/act/Mul_output_0"
    name: "/head/stems.0/act/Mul"
    op_type: "Mul"
  }
  node {
    input: "/head/stems.0/act/Mul_output_0"
    input: "onnx::Conv_1048"
    input: "onnx::Conv_1049"
    output: "/head/cls_convs.0/cls_convs.0.0/conv/Conv_output_0"
    name: "/head/cls_convs.0/cls_convs.0.0/conv/Conv"
    op_type: "Conv"
    attribute {
      name: "dilations"
      ints: 1
      ints: 1
      type: INTS
    }
    attribute {
      name: "group"
      i: 1
      type: INT
    }
    attribute {
      name: "kernel_shape"
      ints: 3
      ints: 3
      type: INTS
    }
    attribute {
      name: "pads"
      ints: 1
      ints: 1
      ints: 1
      ints: 1
      type: INTS
    }
    attribute {
      name: "strides"
      ints: 1
      ints: 1
      type: INTS
    }
  }
  node {
    input: "/head/cls_convs.0/cls_convs.0.0/conv/Conv_output_0"
    output: "/head/cls_convs.0/cls_convs.0.0/act/Sigmoid_output_0"
    name: "/head/cls_convs.0/cls_convs.0.0/act/Sigmoid"
    op_type: "Sigmoid"
  }
  node {
    input: "/head/cls_convs.0/cls_convs.0.0/conv/Conv_output_0"
    input: "/head/cls_convs.0/cls_convs.0.0/act/Sigmoid_output_0"
    output: "/head/cls_convs.0/cls_convs.0.0/act/Mul_output_0"
    name: "/head/cls_convs.0/cls_convs.0.0/act/Mul"
    op_type: "Mul"
  }
  node {
    input: "/head/cls_convs.0/cls_convs.0.0/act/Mul_output_0"
    input: "onnx::Conv_1051"
    input: "onnx::Conv_1052"
    output: "/head/cls_convs.0/cls_convs.0.1/conv/Conv_output_0"
    name: "/head/cls_convs.0/cls_convs.0.1/conv/Conv"
    op_type: "Conv"
    attribute {
      name: "dilations"
      ints: 1
      ints: 1
      type: INTS
    }
    attribute {
      name: "group"
      i: 1
      type: INT
    }
    attribute {
      name: "kernel_shape"
      ints: 3
      ints: 3
      type: INTS
    }
    attribute {
      name: "pads"
      ints: 1
      ints: 1
      ints: 1
      ints: 1
      type: INTS
    }
    attribute {
      name: "strides"
      ints: 1
      ints: 1
      type: INTS
    }
  }
  node {
    input: "/head/cls_convs.0/cls_convs.0.1/conv/Conv_output_0"
    output: "/head/cls_convs.0/cls_convs.0.1/act/Sigmoid_output_0"
    name: "/head/cls_convs.0/cls_convs.0.1/act/Sigmoid"
    op_type: "Sigmoid"
  }
  node {
    input: "/head/cls_convs.0/cls_convs.0.1/conv/Conv_output_0"
    input: "/head/cls_convs.0/cls_convs.0.1/act/Sigmoid_output_0"
    output: "/head/cls_convs.0/cls_convs.0.1/act/Mul_output_0"
    name: "/head/cls_convs.0/cls_convs.0.1/act/Mul"
    op_type: "Mul"
  }
  node {
    input: "/head/cls_convs.0/cls_convs.0.1/act/Mul_output_0"
    input: "head.cls_preds.0.weight"
    input: "head.cls_preds.0.bias"
    output: "/head/cls_preds.0/Conv_output_0"
    name: "/head/cls_preds.0/Conv"
    op_type: "Conv"
    attribute {
      name: "dilations"
      ints: 1
      ints: 1
      type: INTS
    }
    attribute {
      name: "group"
      i: 1
      type: INT
    }
    attribute {
      name: "kernel_shape"
      ints: 1
      ints: 1
      type: INTS
    }
    attribute {
      name: "pads"
      ints: 0
      ints: 0
      ints: 0
      ints: 0
      type: INTS
    }
    attribute {
      name: "strides"
      ints: 1
      ints: 1
      type: INTS
    }
  }
  node {
    input: "/head/stems.0/act/Mul_output_0"
    input: "onnx::Conv_1054"
    input: "onnx::Conv_1055"
    output: "/head/reg_convs.0/reg_convs.0.0/conv/Conv_output_0"
    name: "/head/reg_convs.0/reg_convs.0.0/conv/Conv"
    op_type: "Conv"
    attribute {
      name: "dilations"
      ints: 1
      ints: 1
      type: INTS
    }
    attribute {
      name: "group"
      i: 1
      type: INT
    }
    attribute {
      name: "kernel_shape"
      ints: 3
      ints: 3
      type: INTS
    }
    attribute {
      name: "pads"
      ints: 1
      ints: 1
      ints: 1
      ints: 1
      type: INTS
    }
    attribute {
      name: "strides"
      ints: 1
      ints: 1
      type: INTS
    }
  }
  node {
    input: "/head/reg_convs.0/reg_convs.0.0/conv/Conv_output_0"
    output: "/head/reg_convs.0/reg_convs.0.0/act/Sigmoid_output_0"
    name: "/head/reg_convs.0/reg_convs.0.0/act/Sigmoid"
    op_type: "Sigmoid"
  }
  node {
    input: "/head/reg_convs.0/reg_convs.0.0/conv/Conv_output_0"
    input: "/head/reg_convs.0/reg_convs.0.0/act/Sigmoid_output_0"
    output: "/head/reg_convs.0/reg_convs.0.0/act/Mul_output_0"
    name: "/head/reg_convs.0/reg_convs.0.0/act/Mul"
    op_type: "Mul"
  }
  node {
    input: "/head/reg_convs.0/reg_convs.0.0/act/Mul_output_0"
    input: "onnx::Conv_1057"
    input: "onnx::Conv_1058"
    output: "/head/reg_convs.0/reg_convs.0.1/conv/Conv_output_0"
    name: "/head/reg_convs.0/reg_convs.0.1/conv/Conv"
    op_type: "Conv"
    attribute {
      name: "dilations"
      ints: 1
      ints: 1
      type: INTS
    }
    attribute {
      name: "group"
      i: 1
      type: INT
    }
    attribute {
      name: "kernel_shape"
      ints: 3
      ints: 3
      type: INTS
    }
    attribute {
      name: "pads"
      ints: 1
      ints: 1
      ints: 1
      ints: 1
      type: INTS
    }
    attribute {
      name: "strides"
      ints: 1
      ints: 1
      type: INTS
    }
  }
  node {
    input: "/head/reg_convs.0/reg_convs.0.1/conv/Conv_output_0"
    output: "/head/reg_convs.0/reg_convs.0.1/act/Sigmoid_output_0"
    name: "/head/reg_convs.0/reg_convs.0.1/act/Sigmoid"
    op_type: "Sigmoid"
  }
  node {
    input: "/head/reg_convs.0/reg_convs.0.1/conv/Conv_output_0"
    input: "/head/reg_convs.0/reg_convs.0.1/act/Sigmoid_output_0"
    output: "/head/reg_convs.0/reg_convs.0.1/act/Mul_output_0"
    name: "/head/reg_convs.0/reg_convs.0.1/act/Mul"
    op_type: "Mul"
  }
  node {
    input: "/head/reg_convs.0/reg_convs.0.1/act/Mul_output_0"
    input: "head.reg_preds.0.weight"
    input: "head.reg_preds.0.bias"
    output: "/head/reg_preds.0/Conv_output_0"
    name: "/head/reg_preds.0/Conv"
    op_type: "Conv"
    attribute {
      name: "dilations"
      ints: 1
      ints: 1
      type: INTS
    }
    attribute {
      name: "group"
      i: 1
      type: INT
    }
    attribute {
      name: "kernel_shape"
      ints: 1
      ints: 1
      type: INTS
    }
    attribute {
      name: "pads"
      ints: 0
      ints: 0
      ints: 0
      ints: 0
      type: INTS
    }
    attribute {
      name: "strides"
      ints: 1
      ints: 1
      type: INTS
    }
  }
  node {
    input: "/head/reg_convs.0/reg_convs.0.1/act/Mul_output_0"
    input: "head.obj_preds.0.weight"
    input: "head.obj_preds.0.bias"
    output: "/head/obj_preds.0/Conv_output_0"
    name: "/head/obj_preds.0/Conv"
    op_type: "Conv"
    attribute {
      name: "dilations"
      ints: 1
      ints: 1
      type: INTS
    }
    attribute {
      name: "group"
      i: 1
      type: INT
    }
    attribute {
      name: "kernel_shape"
      ints: 1
      ints: 1
      type: INTS
    }
    attribute {
      name: "pads"
      ints: 0
      ints: 0
      ints: 0
      ints: 0
      type: INTS
    }
    attribute {
      name: "strides"
      ints: 1
      ints: 1
      type: INTS
    }
  }
  node {
    input: "/head/obj_preds.0/Conv_output_0"
    output: "/head/Sigmoid_output_0"
    name: "/head/Sigmoid"
    op_type: "Sigmoid"
  }
  node {
    input: "/head/cls_preds.0/Conv_output_0"
    output: "/head/Sigmoid_1_output_0"
    name: "/head/Sigmoid_1"
    op_type: "Sigmoid"
  }
  node {
    input: "/head/reg_preds.0/Conv_output_0"
    input: "/head/Sigmoid_output_0"
    input: "/head/Sigmoid_1_output_0"
    output: "/head/Concat_output_0"
    name: "/head/Concat"
    op_type: "Concat"
    attribute {
      name: "axis"
      i: 1
      type: INT
    }
  }
  node {
    input: "/backbone/C3_n3/conv3/act/Mul_output_0"
    input: "onnx::Conv_1060"
    input: "onnx::Conv_1061"
    output: "/head/stems.1/conv/Conv_output_0"
    name: "/head/stems.1/conv/Conv"
    op_type: "Conv"
    attribute {
      name: "dilations"
      ints: 1
      ints: 1
      type: INTS
    }
    attribute {
      name: "group"
      i: 1
      type: INT
    }
    attribute {
      name: "kernel_shape"
      ints: 1
      ints: 1
      type: INTS
    }
    attribute {
      name: "pads"
      ints: 0
      ints: 0
      ints: 0
      ints: 0
      type: INTS
    }
    attribute {
      name: "strides"
      ints: 1
      ints: 1
      type: INTS
    }
  }
  node {
    input: "/head/stems.1/conv/Conv_output_0"
    output: "/head/stems.1/act/Sigmoid_output_0"
    name: "/head/stems.1/act/Sigmoid"
    op_type: "Sigmoid"
  }
  node {
    input: "/head/stems.1/conv/Conv_output_0"
    input: "/head/stems.1/act/Sigmoid_output_0"
    output: "/head/stems.1/act/Mul_output_0"
    name: "/head/stems.1/act/Mul"
    op_type: "Mul"
  }
  node {
    input: "/head/stems.1/act/Mul_output_0"
    input: "onnx::Conv_1063"
    input: "onnx::Conv_1064"
    output: "/head/cls_convs.1/cls_convs.1.0/conv/Conv_output_0"
    name: "/head/cls_convs.1/cls_convs.1.0/conv/Conv"
    op_type: "Conv"
    attribute {
      name: "dilations"
      ints: 1
      ints: 1
      type: INTS
    }
    attribute {
      name: "group"
      i: 1
      type: INT
    }
    attribute {
      name: "kernel_shape"
      ints: 3
      ints: 3
      type: INTS
    }
    attribute {
      name: "pads"
      ints: 1
      ints: 1
      ints: 1
      ints: 1
      type: INTS
    }
    attribute {
      name: "strides"
      ints: 1
      ints: 1
      type: INTS
    }
  }
  node {
    input: "/head/cls_convs.1/cls_convs.1.0/conv/Conv_output_0"
    output: "/head/cls_convs.1/cls_convs.1.0/act/Sigmoid_output_0"
    name: "/head/cls_convs.1/cls_convs.1.0/act/Sigmoid"
    op_type: "Sigmoid"
  }
  node {
    input: "/head/cls_convs.1/cls_convs.1.0/conv/Conv_output_0"
    input: "/head/cls_convs.1/cls_convs.1.0/act/Sigmoid_output_0"
    output: "/head/cls_convs.1/cls_convs.1.0/act/Mul_output_0"
    name: "/head/cls_convs.1/cls_convs.1.0/act/Mul"
    op_type: "Mul"
  }
  node {
    input: "/head/cls_convs.1/cls_convs.1.0/act/Mul_output_0"
    input: "onnx::Conv_1066"
    input: "onnx::Conv_1067"
    output: "/head/cls_convs.1/cls_convs.1.1/conv/Conv_output_0"
    name: "/head/cls_convs.1/cls_convs.1.1/conv/Conv"
    op_type: "Conv"
    attribute {
      name: "dilations"
      ints: 1
      ints: 1
      type: INTS
    }
    attribute {
      name: "group"
      i: 1
      type: INT
    }
    attribute {
      name: "kernel_shape"
      ints: 3
      ints: 3
      type: INTS
    }
    attribute {
      name: "pads"
      ints: 1
      ints: 1
      ints: 1
      ints: 1
      type: INTS
    }
    attribute {
      name: "strides"
      ints: 1
      ints: 1
      type: INTS
    }
  }
  node {
    input: "/head/cls_convs.1/cls_convs.1.1/conv/Conv_output_0"
    output: "/head/cls_convs.1/cls_convs.1.1/act/Sigmoid_output_0"
    name: "/head/cls_convs.1/cls_convs.1.1/act/Sigmoid"
    op_type: "Sigmoid"
  }
  node {
    input: "/head/cls_convs.1/cls_convs.1.1/conv/Conv_output_0"
    input: "/head/cls_convs.1/cls_convs.1.1/act/Sigmoid_output_0"
    output: "/head/cls_convs.1/cls_convs.1.1/act/Mul_output_0"
    name: "/head/cls_convs.1/cls_convs.1.1/act/Mul"
    op_type: "Mul"
  }
  node {
    input: "/head/cls_convs.1/cls_convs.1.1/act/Mul_output_0"
    input: "head.cls_preds.1.weight"
    input: "head.cls_preds.1.bias"
    output: "/head/cls_preds.1/Conv_output_0"
    name: "/head/cls_preds.1/Conv"
    op_type: "Conv"
    attribute {
      name: "dilations"
      ints: 1
      ints: 1
      type: INTS
    }
    attribute {
      name: "group"
      i: 1
      type: INT
    }
    attribute {
      name: "kernel_shape"
      ints: 1
      ints: 1
      type: INTS
    }
    attribute {
      name: "pads"
      ints: 0
      ints: 0
      ints: 0
      ints: 0
      type: INTS
    }
    attribute {
      name: "strides"
      ints: 1
      ints: 1
      type: INTS
    }
  }
  node {
    input: "/head/stems.1/act/Mul_output_0"
    input: "onnx::Conv_1069"
    input: "onnx::Conv_1070"
    output: "/head/reg_convs.1/reg_convs.1.0/conv/Conv_output_0"
    name: "/head/reg_convs.1/reg_convs.1.0/conv/Conv"
    op_type: "Conv"
    attribute {
      name: "dilations"
      ints: 1
      ints: 1
      type: INTS
    }
    attribute {
      name: "group"
      i: 1
      type: INT
    }
    attribute {
      name: "kernel_shape"
      ints: 3
      ints: 3
      type: INTS
    }
    attribute {
      name: "pads"
      ints: 1
      ints: 1
      ints: 1
      ints: 1
      type: INTS
    }
    attribute {
      name: "strides"
      ints: 1
      ints: 1
      type: INTS
    }
  }
  node {
    input: "/head/reg_convs.1/reg_convs.1.0/conv/Conv_output_0"
    output: "/head/reg_convs.1/reg_convs.1.0/act/Sigmoid_output_0"
    name: "/head/reg_convs.1/reg_convs.1.0/act/Sigmoid"
    op_type: "Sigmoid"
  }
  node {
    input: "/head/reg_convs.1/reg_convs.1.0/conv/Conv_output_0"
    input: "/head/reg_convs.1/reg_convs.1.0/act/Sigmoid_output_0"
    output: "/head/reg_convs.1/reg_convs.1.0/act/Mul_output_0"
    name: "/head/reg_convs.1/reg_convs.1.0/act/Mul"
    op_type: "Mul"
  }
  node {
    input: "/head/reg_convs.1/reg_convs.1.0/act/Mul_output_0"
    input: "onnx::Conv_1072"
    input: "onnx::Conv_1073"
    output: "/head/reg_convs.1/reg_convs.1.1/conv/Conv_output_0"
    name: "/head/reg_convs.1/reg_convs.1.1/conv/Conv"
    op_type: "Conv"
    attribute {
      name: "dilations"
      ints: 1
      ints: 1
      type: INTS
    }
    attribute {
      name: "group"
      i: 1
      type: INT
    }
    attribute {
      name: "kernel_shape"
      ints: 3
      ints: 3
      type: INTS
    }
    attribute {
      name: "pads"
      ints: 1
      ints: 1
      ints: 1
      ints: 1
      type: INTS
    }
    attribute {
      name: "strides"
      ints: 1
      ints: 1
      type: INTS
    }
  }
  node {
    input: "/head/reg_convs.1/reg_convs.1.1/conv/Conv_output_0"
    output: "/head/reg_convs.1/reg_convs.1.1/act/Sigmoid_output_0"
    name: "/head/reg_convs.1/reg_convs.1.1/act/Sigmoid"
    op_type: "Sigmoid"
  }
  node {
    input: "/head/reg_convs.1/reg_convs.1.1/conv/Conv_output_0"
    input: "/head/reg_convs.1/reg_convs.1.1/act/Sigmoid_output_0"
    output: "/head/reg_convs.1/reg_convs.1.1/act/Mul_output_0"
    name: "/head/reg_convs.1/reg_convs.1.1/act/Mul"
    op_type: "Mul"
  }
  node {
    input: "/head/reg_convs.1/reg_convs.1.1/act/Mul_output_0"
    input: "head.reg_preds.1.weight"
    input: "head.reg_preds.1.bias"
    output: "/head/reg_preds.1/Conv_output_0"
    name: "/head/reg_preds.1/Conv"
    op_type: "Conv"
    attribute {
      name: "dilations"
      ints: 1
      ints: 1
      type: INTS
    }
    attribute {
      name: "group"
      i: 1
      type: INT
    }
    attribute {
      name: "kernel_shape"
      ints: 1
      ints: 1
      type: INTS
    }
    attribute {
      name: "pads"
      ints: 0
      ints: 0
      ints: 0
      ints: 0
      type: INTS
    }
    attribute {
      name: "strides"
      ints: 1
      ints: 1
      type: INTS
    }
  }
  node {
    input: "/head/reg_convs.1/reg_convs.1.1/act/Mul_output_0"
    input: "head.obj_preds.1.weight"
    input: "head.obj_preds.1.bias"
    output: "/head/obj_preds.1/Conv_output_0"
    name: "/head/obj_preds.1/Conv"
    op_type: "Conv"
    attribute {
      name: "dilations"
      ints: 1
      ints: 1
      type: INTS
    }
    attribute {
      name: "group"
      i: 1
      type: INT
    }
    attribute {
      name: "kernel_shape"
      ints: 1
      ints: 1
      type: INTS
    }
    attribute {
      name: "pads"
      ints: 0
      ints: 0
      ints: 0
      ints: 0
      type: INTS
    }
    attribute {
      name: "strides"
      ints: 1
      ints: 1
      type: INTS
    }
  }
  node {
    input: "/head/obj_preds.1/Conv_output_0"
    output: "/head/Sigmoid_2_output_0"
    name: "/head/Sigmoid_2"
    op_type: "Sigmoid"
  }
  node {
    input: "/head/cls_preds.1/Conv_output_0"
    output: "/head/Sigmoid_3_output_0"
    name: "/head/Sigmoid_3"
    op_type: "Sigmoid"
  }
  node {
    input: "/head/reg_preds.1/Conv_output_0"
    input: "/head/Sigmoid_2_output_0"
    input: "/head/Sigmoid_3_output_0"
    output: "/head/Concat_1_output_0"
    name: "/head/Concat_1"
    op_type: "Concat"
    attribute {
      name: "axis"
      i: 1
      type: INT
    }
  }
  node {
    input: "/backbone/C3_n4/conv3/act/Mul_output_0"
    input: "onnx::Conv_1075"
    input: "onnx::Conv_1076"
    output: "/head/stems.2/conv/Conv_output_0"
    name: "/head/stems.2/conv/Conv"
    op_type: "Conv"
    attribute {
      name: "dilations"
      ints: 1
      ints: 1
      type: INTS
    }
    attribute {
      name: "group"
      i: 1
      type: INT
    }
    attribute {
      name: "kernel_shape"
      ints: 1
      ints: 1
      type: INTS
    }
    attribute {
      name: "pads"
      ints: 0
      ints: 0
      ints: 0
      ints: 0
      type: INTS
    }
    attribute {
      name: "strides"
      ints: 1
      ints: 1
      type: INTS
    }
  }
  node {
    input: "/head/stems.2/conv/Conv_output_0"
    output: "/head/stems.2/act/Sigmoid_output_0"
    name: "/head/stems.2/act/Sigmoid"
    op_type: "Sigmoid"
  }
  node {
    input: "/head/stems.2/conv/Conv_output_0"
    input: "/head/stems.2/act/Sigmoid_output_0"
    output: "/head/stems.2/act/Mul_output_0"
    name: "/head/stems.2/act/Mul"
    op_type: "Mul"
  }
  node {
    input: "/head/stems.2/act/Mul_output_0"
    input: "onnx::Conv_1078"
    input: "onnx::Conv_1079"
    output: "/head/cls_convs.2/cls_convs.2.0/conv/Conv_output_0"
    name: "/head/cls_convs.2/cls_convs.2.0/conv/Conv"
    op_type: "Conv"
    attribute {
      name: "dilations"
      ints: 1
      ints: 1
      type: INTS
    }
    attribute {
      name: "group"
      i: 1
      type: INT
    }
    attribute {
      name: "kernel_shape"
      ints: 3
      ints: 3
      type: INTS
    }
    attribute {
      name: "pads"
      ints: 1
      ints: 1
      ints: 1
      ints: 1
      type: INTS
    }
    attribute {
      name: "strides"
      ints: 1
      ints: 1
      type: INTS
    }
  }
  node {
    input: "/head/cls_convs.2/cls_convs.2.0/conv/Conv_output_0"
    output: "/head/cls_convs.2/cls_convs.2.0/act/Sigmoid_output_0"
    name: "/head/cls_convs.2/cls_convs.2.0/act/Sigmoid"
    op_type: "Sigmoid"
  }
  node {
    input: "/head/cls_convs.2/cls_convs.2.0/conv/Conv_output_0"
    input: "/head/cls_convs.2/cls_convs.2.0/act/Sigmoid_output_0"
    output: "/head/cls_convs.2/cls_convs.2.0/act/Mul_output_0"
    name: "/head/cls_convs.2/cls_convs.2.0/act/Mul"
    op_type: "Mul"
  }
  node {
    input: "/head/cls_convs.2/cls_convs.2.0/act/Mul_output_0"
    input: "onnx::Conv_1081"
    input: "onnx::Conv_1082"
    output: "/head/cls_convs.2/cls_convs.2.1/conv/Conv_output_0"
    name: "/head/cls_convs.2/cls_convs.2.1/conv/Conv"
    op_type: "Conv"
    attribute {
      name: "dilations"
      ints: 1
      ints: 1
      type: INTS
    }
    attribute {
      name: "group"
      i: 1
      type: INT
    }
    attribute {
      name: "kernel_shape"
      ints: 3
      ints: 3
      type: INTS
    }
    attribute {
      name: "pads"
      ints: 1
      ints: 1
      ints: 1
      ints: 1
      type: INTS
    }
    attribute {
      name: "strides"
      ints: 1
      ints: 1
      type: INTS
    }
  }
  node {
    input: "/head/cls_convs.2/cls_convs.2.1/conv/Conv_output_0"
    output: "/head/cls_convs.2/cls_convs.2.1/act/Sigmoid_output_0"
    name: "/head/cls_convs.2/cls_convs.2.1/act/Sigmoid"
    op_type: "Sigmoid"
  }
  node {
    input: "/head/cls_convs.2/cls_convs.2.1/conv/Conv_output_0"
    input: "/head/cls_convs.2/cls_convs.2.1/act/Sigmoid_output_0"
    output: "/head/cls_convs.2/cls_convs.2.1/act/Mul_output_0"
    name: "/head/cls_convs.2/cls_convs.2.1/act/Mul"
    op_type: "Mul"
  }
  node {
    input: "/head/cls_convs.2/cls_convs.2.1/act/Mul_output_0"
    input: "head.cls_preds.2.weight"
    input: "head.cls_preds.2.bias"
    output: "/head/cls_preds.2/Conv_output_0"
    name: "/head/cls_preds.2/Conv"
    op_type: "Conv"
    attribute {
      name: "dilations"
      ints: 1
      ints: 1
      type: INTS
    }
    attribute {
      name: "group"
      i: 1
      type: INT
    }
    attribute {
      name: "kernel_shape"
      ints: 1
      ints: 1
      type: INTS
    }
    attribute {
      name: "pads"
      ints: 0
      ints: 0
      ints: 0
      ints: 0
      type: INTS
    }
    attribute {
      name: "strides"
      ints: 1
      ints: 1
      type: INTS
    }
  }
  node {
    input: "/head/stems.2/act/Mul_output_0"
    input: "onnx::Conv_1084"
    input: "onnx::Conv_1085"
    output: "/head/reg_convs.2/reg_convs.2.0/conv/Conv_output_0"
    name: "/head/reg_convs.2/reg_convs.2.0/conv/Conv"
    op_type: "Conv"
    attribute {
      name: "dilations"
      ints: 1
      ints: 1
      type: INTS
    }
    attribute {
      name: "group"
      i: 1
      type: INT
    }
    attribute {
      name: "kernel_shape"
      ints: 3
      ints: 3
      type: INTS
    }
    attribute {
      name: "pads"
      ints: 1
      ints: 1
      ints: 1
      ints: 1
      type: INTS
    }
    attribute {
      name: "strides"
      ints: 1
      ints: 1
      type: INTS
    }
  }
  node {
    input: "/head/reg_convs.2/reg_convs.2.0/conv/Conv_output_0"
    output: "/head/reg_convs.2/reg_convs.2.0/act/Sigmoid_output_0"
    name: "/head/reg_convs.2/reg_convs.2.0/act/Sigmoid"
    op_type: "Sigmoid"
  }
  node {
    input: "/head/reg_convs.2/reg_convs.2.0/conv/Conv_output_0"
    input: "/head/reg_convs.2/reg_convs.2.0/act/Sigmoid_output_0"
    output: "/head/reg_convs.2/reg_convs.2.0/act/Mul_output_0"
    name: "/head/reg_convs.2/reg_convs.2.0/act/Mul"
    op_type: "Mul"
  }
  node {
    input: "/head/reg_convs.2/reg_convs.2.0/act/Mul_output_0"
    input: "onnx::Conv_1087"
    input: "onnx::Conv_1088"
    output: "/head/reg_convs.2/reg_convs.2.1/conv/Conv_output_0"
    name: "/head/reg_convs.2/reg_convs.2.1/conv/Conv"
    op_type: "Conv"
    attribute {
      name: "dilations"
      ints: 1
      ints: 1
      type: INTS
    }
    attribute {
      name: "group"
      i: 1
      type: INT
    }
    attribute {
      name: "kernel_shape"
      ints: 3
      ints: 3
      type: INTS
    }
    attribute {
      name: "pads"
      ints: 1
      ints: 1
      ints: 1
      ints: 1
      type: INTS
    }
    attribute {
      name: "strides"
      ints: 1
      ints: 1
      type: INTS
    }
  }
  node {
    input: "/head/reg_convs.2/reg_convs.2.1/conv/Conv_output_0"
    output: "/head/reg_convs.2/reg_convs.2.1/act/Sigmoid_output_0"
    name: "/head/reg_convs.2/reg_convs.2.1/act/Sigmoid"
    op_type: "Sigmoid"
  }
  node {
    input: "/head/reg_convs.2/reg_convs.2.1/conv/Conv_output_0"
    input: "/head/reg_convs.2/reg_convs.2.1/act/Sigmoid_output_0"
    output: "/head/reg_convs.2/reg_convs.2.1/act/Mul_output_0"
    name: "/head/reg_convs.2/reg_convs.2.1/act/Mul"
    op_type: "Mul"
  }
  node {
    input: "/head/reg_convs.2/reg_convs.2.1/act/Mul_output_0"
    input: "head.reg_preds.2.weight"
    input: "head.reg_preds.2.bias"
    output: "/head/reg_preds.2/Conv_output_0"
    name: "/head/reg_preds.2/Conv"
    op_type: "Conv"
    attribute {
      name: "dilations"
      ints: 1
      ints: 1
      type: INTS
    }
    attribute {
      name: "group"
      i: 1
      type: INT
    }
    attribute {
      name: "kernel_shape"
      ints: 1
      ints: 1
      type: INTS
    }
    attribute {
      name: "pads"
      ints: 0
      ints: 0
      ints: 0
      ints: 0
      type: INTS
    }
    attribute {
      name: "strides"
      ints: 1
      ints: 1
      type: INTS
    }
  }
  node {
    input: "/head/reg_convs.2/reg_convs.2.1/act/Mul_output_0"
    input: "head.obj_preds.2.weight"
    input: "head.obj_preds.2.bias"
    output: "/head/obj_preds.2/Conv_output_0"
    name: "/head/obj_preds.2/Conv"
    op_type: "Conv"
    attribute {
      name: "dilations"
      ints: 1
      ints: 1
      type: INTS
    }
    attribute {
      name: "group"
      i: 1
      type: INT
    }
    attribute {
      name: "kernel_shape"
      ints: 1
      ints: 1
      type: INTS
    }
    attribute {
      name: "pads"
      ints: 0
      ints: 0
      ints: 0
      ints: 0
      type: INTS
    }
    attribute {
      name: "strides"
      ints: 1
      ints: 1
      type: INTS
    }
  }
  node {
    input: "/head/obj_preds.2/Conv_output_0"
    output: "/head/Sigmoid_4_output_0"
    name: "/head/Sigmoid_4"
    op_type: "Sigmoid"
  }
  node {
    input: "/head/cls_preds.2/Conv_output_0"
    output: "/head/Sigmoid_5_output_0"
    name: "/head/Sigmoid_5"
    op_type: "Sigmoid"
  }
  node {
    input: "/head/reg_preds.2/Conv_output_0"
    input: "/head/Sigmoid_4_output_0"
    input: "/head/Sigmoid_5_output_0"
    output: "/head/Concat_2_output_0"
    name: "/head/Concat_2"
    op_type: "Concat"
    attribute {
      name: "axis"
      i: 1
      type: INT
    }
  }
  node {
    input: "/head/Concat_output_0"
    input: "469"
    output: "/head/Reshape_output_0"
    name: "/head/Reshape"
    op_type: "Reshape"
  }
  node {
    input: "/head/Concat_1_output_0"
    input: "469"
    output: "/head/Reshape_1_output_0"
    name: "/head/Reshape_1"
    op_type: "Reshape"
  }
  node {
    input: "/head/Concat_2_output_0"
    input: "469"
    output: "/head/Reshape_2_output_0"
    name: "/head/Reshape_2"
    op_type: "Reshape"
  }
  node {
    input: "/head/Reshape_output_0"
    input: "/head/Reshape_1_output_0"
    input: "/head/Reshape_2_output_0"
    output: "/head/Concat_6_output_0"
    name: "/head/Concat_6"
    op_type: "Concat"
    attribute {
      name: "axis"
      i: 2
      type: INT
    }
  }
  node {
    input: "/head/Concat_6_output_0"
    output: "output"
    name: "/head/Transpose"
    op_type: "Transpose"
    attribute {
      name: "perm"
      ints: 0
      ints: 2
      ints: 1
      type: INTS
    }
  }
  initializer {
      dims: 10
      dims: 128
      dims: 1
      dims: 1
      data_type: 1
      name: "head.cls_preds.0.weight"
  }
  initializer {
    dims: 10
    data_type: 1
    name: "head.cls_preds.0.bias"
    raw_data: "…"
  }
  initializer {
      dims: 10
      dims: 128
      dims: 1
      dims: 1
      data_type: 1
      name: "head.cls_preds.1.weight"
  }
  initializer {
    dims: 10
    data_type: 1
    name: "head.cls_preds.1.bias"
    raw_data: "…"
  }
  initializer {
      dims: 10
      dims: 128
      dims: 1
      dims: 1
      data_type: 1
      name: "head.cls_preds.2.weight"
  }
  initializer {
    dims: 10
    data_type: 1
    name: "head.cls_preds.2.bias"
    raw_data: "…"
  }
  initializer {
      dims: 4
      dims: 128
      dims: 1
      dims: 1
      data_type: 1
      name: "head.reg_preds.0.weight"
  }
  initializer {
    dims: 4
    data_type: 1
    name: "head.reg_preds.0.bias"
    raw_data: "\207]\337>U\007\367>|\307\265?\n\010\305?"
  }
  initializer {
      dims: 4
      dims: 128
      dims: 1
      dims: 1
      data_type: 1
      name: "head.reg_preds.1.weight"
  }
  initializer {
    dims: 4
    data_type: 1
    name: "head.reg_preds.1.bias"
    raw_data: "\264\313\342>\201;\347>M\336\334?\353^\361?"
  }
  initializer {
      dims: 4
      dims: 128
      dims: 1
      dims: 1
      data_type: 1
      name: "head.reg_preds.2.weight"
  }
  initializer {
    dims: 4
    data_type: 1
    name: "head.reg_preds.2.bias"
    raw_data: "\351U\005?\251F\355>\275c\335?RO\373?"
  }
  initializer {
      dims: 1
      dims: 128
      dims: 1
      dims: 1
      data_type: 1
      name: "head.obj_preds.0.weight"
  }
  initializer {
    dims: 1
    data_type: 1
    name: "head.obj_preds.0.bias"
    raw_data: "\241\037(\300"
  }
  initializer {
      dims: 1
      dims: 128
      dims: 1
      dims: 1
      data_type: 1
      name: "head.obj_preds.1.weight"
  }
  initializer {
    dims: 1
    data_type: 1
    name: "head.obj_preds.1.bias"
    raw_data: "xSS\277"
  }
  initializer {
      dims: 1
      dims: 128
      dims: 1
      dims: 1
      data_type: 1
      name: "head.obj_preds.2.weight"
  }
  initializer {
    dims: 1
    data_type: 1
    name: "head.obj_preds.2.bias"
    raw_data: "\221Q\233\277"
  }
  initializer {
      dims: 32
      dims: 12
      dims: 3
      dims: 3
      data_type: 1
      name: "onnx::Conv_868"
  }
  initializer {
    dims: 32
    data_type: 1
    name: "onnx::Conv_869"
    raw_data: "…"
  }
  initializer {
      dims: 64
      dims: 32
      dims: 3
      dims: 3
      data_type: 1
      name: "onnx::Conv_871"
  }
  initializer {
      dims: 64
      data_type: 1
      name: "onnx::Conv_872"
  }
  initializer {
      dims: 32
      dims: 64
      dims: 1
      dims: 1
      data_type: 1
      name: "onnx::Conv_874"
  }
  initializer {
    dims: 32
    data_type: 1
    name: "onnx::Conv_875"
    raw_data: "…"
  }
  initializer {
      dims: 32
      dims: 64
      dims: 1
      dims: 1
      data_type: 1
      name: "onnx::Conv_877"
  }
  initializer {
    dims: 32
    data_type: 1
    name: "onnx::Conv_878"
    raw_data: "…"
  }
  initializer {
      dims: 32
      dims: 32
      dims: 1
      dims: 1
      data_type: 1
      name: "onnx::Conv_880"
  }
  initializer {
    dims: 32
    data_type: 1
    name: "onnx::Conv_881"
    raw_data: "…"
  }
  initializer {
      dims: 32
      dims: 32
      dims: 3
      dims: 3
      data_type: 1
      name: "onnx::Conv_883"
  }
  initializer {
    dims: 32
    data_type: 1
    name: "onnx::Conv_884"
    raw_data: "…"
  }
  initializer {
      dims: 64
      dims: 64
      dims: 1
      dims: 1
      data_type: 1
      name: "onnx::Conv_886"
  }
  initializer {
      dims: 64
      data_type: 1
      name: "onnx::Conv_887"
  }
  initializer {
      dims: 128
      dims: 64
      dims: 3
      dims: 3
      data_type: 1
      name: "onnx::Conv_889"
  }
  initializer {
      dims: 128
      data_type: 1
      name: "onnx::Conv_890"
  }
  initializer {
      dims: 64
      dims: 128
      dims: 1
      dims: 1
      data_type: 1
      name: "onnx::Conv_892"
  }
  initializer {
      dims: 64
      data_type: 1
      name: "onnx::Conv_893"
  }
  initializer {
      dims: 64
      dims: 128
      dims: 1
      dims: 1
      data_type: 1
      name: "onnx::Conv_895"
  }
  initializer {
      dims: 64
      data_type: 1
      name: "onnx::Conv_896"
  }
  initializer {
      dims: 64
      dims: 64
      dims: 1
      dims: 1
      data_type: 1
      name: "onnx::Conv_898"
  }
  initializer {
      dims: 64
      data_type: 1
      name: "onnx::Conv_899"
  }
  initializer {
      dims: 64
      dims: 64
      dims: 3
      dims: 3
      data_type: 1
      name: "onnx::Conv_901"
  }
  initializer {
      dims: 64
      data_type: 1
      name: "onnx::Conv_902"
  }
  initializer {
      dims: 64
      dims: 64
      dims: 1
      dims: 1
      data_type: 1
      name: "onnx::Conv_904"
  }
  initializer {
      dims: 64
      data_type: 1
      name: "onnx::Conv_905"
  }
  initializer {
      dims: 64
      dims: 64
      dims: 3
      dims: 3
      data_type: 1
      name: "onnx::Conv_907"
  }
  initializer {
      dims: 64
      data_type: 1
      name: "onnx::Conv_908"
  }
  initializer {
      dims: 64
      dims: 64
      dims: 1
      dims: 1
      data_type: 1
      name: "onnx::Conv_910"
  }
  initializer {
      dims: 64
      data_type: 1
      name: "onnx::Conv_911"
  }
  initializer {
      dims: 64
      dims: 64
      dims: 3
      dims: 3
      data_type: 1
      name: "onnx::Conv_913"
  }
  initializer {
      dims: 64
      data_type: 1
      name: "onnx::Conv_914"
  }
  initializer {
      dims: 128
      dims: 128
      dims: 1
      dims: 1
      data_type: 1
      name: "onnx::Conv_916"
  }
  initializer {
      dims: 128
      data_type: 1
      name: "onnx::Conv_917"
  }
  initializer {
      dims: 256
      dims: 128
      dims: 3
      dims: 3
      data_type: 1
      name: "onnx::Conv_919"
  }
  initializer {
      dims: 256
      data_type: 1
      name: "onnx::Conv_920"
  }
  initializer {
      dims: 128
      dims: 256
      dims: 1
      dims: 1
      data_type: 1
      name: "onnx::Conv_922"
  }
  initializer {
      dims: 128
      data_type: 1
      name: "onnx::Conv_923"
  }
  initializer {
      dims: 128
      dims: 256
      dims: 1
      dims: 1
      data_type: 1
      name: "onnx::Conv_925"
  }
  initializer {
      dims: 128
      data_type: 1
      name: "onnx::Conv_926"
  }
  initializer {
      dims: 128
      dims: 128
      dims: 1
      dims: 1
      data_type: 1
      name: "onnx::Conv_928"
  }
  initializer {
      dims: 128
      data_type: 1
      name: "onnx::Conv_929"
  }
  initializer {
      dims: 128
      dims: 128
      dims: 3
      dims: 3
      data_type: 1
      name: "onnx::Conv_931"
  }
  initializer {
      dims: 128
      data_type: 1
      name: "onnx::Conv_932"
  }
  initializer {
      dims: 128
      dims: 128
      dims: 1
      dims: 1
      data_type: 1
      name: "onnx::Conv_934"
  }
  initializer {
      dims: 128
      data_type: 1
      name: "onnx::Conv_935"
  }
  initializer {
      dims: 128
      dims: 128
      dims: 3
      dims: 3
      data_type: 1
      name: "onnx::Conv_937"
  }
  initializer {
      dims: 128
      data_type: 1
      name: "onnx::Conv_938"
  }
  initializer {
      dims: 128
      dims: 128
      dims: 1
      dims: 1
      data_type: 1
      name: "onnx::Conv_940"
  }
  initializer {
      dims: 128
      data_type: 1
      name: "onnx::Conv_941"
  }
  initializer {
      dims: 128
      dims: 128
      dims: 3
      dims: 3
      data_type: 1
      name: "onnx::Conv_943"
  }
  initializer {
      dims: 128
      data_type: 1
      name: "onnx::Conv_944"
  }
  initializer {
      dims: 256
      dims: 256
      dims: 1
      dims: 1
      data_type: 1
      name: "onnx::Conv_946"
  }
  initializer {
      dims: 256
      data_type: 1
      name: "onnx::Conv_947"
  }
  initializer {
      dims: 512
      dims: 256
      dims: 3
      dims: 3
      data_type: 1
      name: "onnx::Conv_949"
  }
  initializer {
      dims: 512
      data_type: 1
      name: "onnx::Conv_950"
  }
  initializer {
      dims: 256
      dims: 512
      dims: 1
      dims: 1
      data_type: 1
      name: "onnx::Conv_952"
  }
  initializer {
      dims: 256
      data_type: 1
      name: "onnx::Conv_953"
  }
  initializer {
      dims: 512
      dims: 1024
      dims: 1
      dims: 1
      data_type: 1
      name: "onnx::Conv_955"
  }
  initializer {
      dims: 512
      data_type: 1
      name: "onnx::Conv_956"
  }
  initializer {
      dims: 256
      dims: 512
      dims: 1
      dims: 1
      data_type: 1
      name: "onnx::Conv_958"
  }
  initializer {
      dims: 256
      data_type: 1
      name: "onnx::Conv_959"
  }
  initializer {
      dims: 256
      dims: 512
      dims: 1
      dims: 1
      data_type: 1
      name: "onnx::Conv_961"
  }
  initializer {
      dims: 256
      data_type: 1
      name: "onnx::Conv_962"
  }
  initializer {
      dims: 256
      dims: 256
      dims: 1
      dims: 1
      data_type: 1
      name: "onnx::Conv_964"
  }
  initializer {
      dims: 256
      data_type: 1
      name: "onnx::Conv_965"
  }
  initializer {
      dims: 256
      dims: 256
      dims: 3
      dims: 3
      data_type: 1
      name: "onnx::Conv_967"
  }
  initializer {
      dims: 256
      data_type: 1
      name: "onnx::Conv_968"
  }
  initializer {
      dims: 512
      dims: 512
      dims: 1
      dims: 1
      data_type: 1
      name: "onnx::Conv_970"
  }
  initializer {
      dims: 512
      data_type: 1
      name: "onnx::Conv_971"
  }
  initializer {
      dims: 256
      dims: 512
      dims: 1
      dims: 1
      data_type: 1
      name: "onnx::Conv_973"
  }
  initializer {
      dims: 256
      data_type: 1
      name: "onnx::Conv_974"
  }
  initializer {
      dims: 128
      dims: 512
      dims: 1
      dims: 1
      data_type: 1
      name: "onnx::Conv_976"
  }
  initializer {
      dims: 128
      data_type: 1
      name: "onnx::Conv_977"
  }
  initializer {
      dims: 128
      dims: 512
      dims: 1
      dims: 1
      data_type: 1
      name: "onnx::Conv_979"
  }
  initializer {
      dims: 128
      data_type: 1
      name: "onnx::Conv_980"
  }
  initializer {
      dims: 128
      dims: 128
      dims: 1
      dims: 1
      data_type: 1
      name: "onnx::Conv_982"
  }
  initializer {
      dims: 128
      data_type: 1
      name: "onnx::Conv_983"
  }
  initializer {
      dims: 128
      dims: 128
      dims: 3
      dims: 3
      data_type: 1
      name: "onnx::Conv_985"
  }
  initializer {
      dims: 128
      data_type: 1
      name: "onnx::Conv_986"
  }
  initializer {
      dims: 256
      dims: 256
      dims: 1
      dims: 1
      data_type: 1
      name: "onnx::Conv_988"
  }
  initializer {
      dims: 256
      data_type: 1
      name: "onnx::Conv_989"
  }
  initializer {
      dims: 128
      dims: 256
      dims: 1
      dims: 1
      data_type: 1
      name: "onnx::Conv_991"
  }
  initializer {
      dims: 128
      data_type: 1
      name: "onnx::Conv_992"
  }
  initializer {
      dims: 64
      dims: 256
      dims: 1
      dims: 1
      data_type: 1
      name: "onnx::Conv_994"
  }
  initializer {
      dims: 64
      data_type: 1
      name: "onnx::Conv_995"
  }
  initializer {
      dims: 64
      dims: 256
      dims: 1
      dims: 1
      data_type: 1
      name: "onnx::Conv_997"
  }
  initializer {
      dims: 64
      data_type: 1
      name: "onnx::Conv_998"
  }
  initializer {
      dims: 64
      dims: 64
      dims: 1
      dims: 1
      data_type: 1
      name: "onnx::Conv_1000"
  }
  initializer {
      dims: 64
      data_type: 1
      name: "onnx::Conv_1001"
  }
  initializer {
      dims: 64
      dims: 64
      dims: 3
      dims: 3
      data_type: 1
      name: "onnx::Conv_1003"
  }
  initializer {
      dims: 64
      data_type: 1
      name: "onnx::Conv_1004"
  }
  initializer {
      dims: 128
      dims: 128
      dims: 1
      dims: 1
      data_type: 1
      name: "onnx::Conv_1006"
  }
  initializer {
      dims: 128
      data_type: 1
      name: "onnx::Conv_1007"
  }
  initializer {
      dims: 128
      dims: 128
      dims: 3
      dims: 3
      data_type: 1
      name: "onnx::Conv_1009"
  }
  initializer {
      dims: 128
      data_type: 1
      name: "onnx::Conv_1010"
  }
  initializer {
      dims: 128
      dims: 256
      dims: 1
      dims: 1
      data_type: 1
      name: "onnx::Conv_1012"
  }
  initializer {
      dims: 128
      data_type: 1
      name: "onnx::Conv_1013"
  }
  initializer {
      dims: 128
      dims: 256
      dims: 1
      dims: 1
      data_type: 1
      name: "onnx::Conv_1015"
  }
  initializer {
      dims: 128
      data_type: 1
      name: "onnx::Conv_1016"
  }
  initializer {
      dims: 128
      dims: 128
      dims: 1
      dims: 1
      data_type: 1
      name: "onnx::Conv_1018"
  }
  initializer {
      dims: 128
      data_type: 1
      name: "onnx::Conv_1019"
  }
  initializer {
      dims: 128
      dims: 128
      dims: 3
      dims: 3
      data_type: 1
      name: "onnx::Conv_1021"
  }
  initializer {
      dims: 128
      data_type: 1
      name: "onnx::Conv_1022"
  }
  initializer {
      dims: 256
      dims: 256
      dims: 1
      dims: 1
      data_type: 1
      name: "onnx::Conv_1024"
  }
  initializer {
      dims: 256
      data_type: 1
      name: "onnx::Conv_1025"
  }
  initializer {
      dims: 256
      dims: 256
      dims: 3
      dims: 3
      data_type: 1
      name: "onnx::Conv_1027"
  }
  initializer {
      dims: 256
      data_type: 1
      name: "onnx::Conv_1028"
  }
  initializer {
      dims: 256
      dims: 512
      dims: 1
      dims: 1
      data_type: 1
      name: "onnx::Conv_1030"
  }
  initializer {
      dims: 256
      data_type: 1
      name: "onnx::Conv_1031"
  }
  initializer {
      dims: 256
      dims: 512
      dims: 1
      dims: 1
      data_type: 1
      name: "onnx::Conv_1033"
  }
  initializer {
      dims: 256
      data_type: 1
      name: "onnx::Conv_1034"
  }
  initializer {
      dims: 256
      dims: 256
      dims: 1
      dims: 1
      data_type: 1
      name: "onnx::Conv_1036"
  }
  initializer {
      dims: 256
      data_type: 1
      name: "onnx::Conv_1037"
  }
  initializer {
      dims: 256
      dims: 256
      dims: 3
      dims: 3
      data_type: 1
      name: "onnx::Conv_1039"
  }
  initializer {
      dims: 256
      data_type: 1
      name: "onnx::Conv_1040"
  }
  initializer {
      dims: 512
      dims: 512
      dims: 1
      dims: 1
      data_type: 1
      name: "onnx::Conv_1042"
  }
  initializer {
      dims: 512
      data_type: 1
      name: "onnx::Conv_1043"
  }
  initializer {
      dims: 128
      dims: 128
      dims: 1
      dims: 1
      data_type: 1
      name: "onnx::Conv_1045"
  }
  initializer {
      dims: 128
      data_type: 1
      name: "onnx::Conv_1046"
  }
  initializer {
      dims: 128
      dims: 128
      dims: 3
      dims: 3
      data_type: 1
      name: "onnx::Conv_1048"
  }
  initializer {
      dims: 128
      data_type: 1
      name: "onnx::Conv_1049"
  }
  initializer {
      dims: 128
      dims: 128
      dims: 3
      dims: 3
      data_type: 1
      name: "onnx::Conv_1051"
  }
  initializer {
      dims: 128
      data_type: 1
      name: "onnx::Conv_1052"
  }
  initializer {
      dims: 128
      dims: 128
      dims: 3
      dims: 3
      data_type: 1
      name: "onnx::Conv_1054"
  }
  initializer {
      dims: 128
      data_type: 1
      name: "onnx::Conv_1055"
  }
  initializer {
      dims: 128
      dims: 128
      dims: 3
      dims: 3
      data_type: 1
      name: "onnx::Conv_1057"
  }
  initializer {
      dims: 128
      data_type: 1
      name: "onnx::Conv_1058"
  }
  initializer {
      dims: 128
      dims: 256
      dims: 1
      dims: 1
      data_type: 1
      name: "onnx::Conv_1060"
  }
  initializer {
      dims: 128
      data_type: 1
      name: "onnx::Conv_1061"
  }
  initializer {
      dims: 128
      dims: 128
      dims: 3
      dims: 3
      data_type: 1
      name: "onnx::Conv_1063"
  }
  initializer {
      dims: 128
      data_type: 1
      name: "onnx::Conv_1064"
  }
  initializer {
      dims: 128
      dims: 128
      dims: 3
      dims: 3
      data_type: 1
      name: "onnx::Conv_1066"
  }
  initializer {
      dims: 128
      data_type: 1
      name: "onnx::Conv_1067"
  }
  initializer {
      dims: 128
      dims: 128
      dims: 3
      dims: 3
      data_type: 1
      name: "onnx::Conv_1069"
  }
  initializer {
      dims: 128
      data_type: 1
      name: "onnx::Conv_1070"
  }
  initializer {
      dims: 128
      dims: 128
      dims: 3
      dims: 3
      data_type: 1
      name: "onnx::Conv_1072"
  }
  initializer {
      dims: 128
      data_type: 1
      name: "onnx::Conv_1073"
  }
  initializer {
      dims: 128
      dims: 512
      dims: 1
      dims: 1
      data_type: 1
      name: "onnx::Conv_1075"
  }
  initializer {
      dims: 128
      data_type: 1
      name: "onnx::Conv_1076"
  }
  initializer {
      dims: 128
      dims: 128
      dims: 3
      dims: 3
      data_type: 1
      name: "onnx::Conv_1078"
  }
  initializer {
      dims: 128
      data_type: 1
      name: "onnx::Conv_1079"
  }
  initializer {
      dims: 128
      dims: 128
      dims: 3
      dims: 3
      data_type: 1
      name: "onnx::Conv_1081"
  }
  initializer {
      dims: 128
      data_type: 1
      name: "onnx::Conv_1082"
  }
  initializer {
      dims: 128
      dims: 128
      dims: 3
      dims: 3
      data_type: 1
      name: "onnx::Conv_1084"
  }
  initializer {
      dims: 128
      data_type: 1
      name: "onnx::Conv_1085"
  }
  initializer {
      dims: 128
      dims: 128
      dims: 3
      dims: 3
      data_type: 1
      name: "onnx::Conv_1087"
  }
  initializer {
      dims: 128
      data_type: 1
      name: "onnx::Conv_1088"
  }
  initializer {
    dims: 1
    data_type: 7
    name: "/backbone/backbone/stem/Constant_output_0"
    raw_data: "\002\000\000\000\000\000\000\000"
  }
  initializer {
    dims: 1
    data_type: 7
    name: "/backbone/backbone/stem/Constant_1_output_0"
    raw_data: "\000\000\000\000\000\000\000\000"
  }
  initializer {
    dims: 1
    data_type: 7
    name: "/backbone/backbone/stem/Constant_2_output_0"
    raw_data: "\377\377\377\377\377\377\377\177"
  }
  initializer {
    dims: 1
    data_type: 7
    name: "/backbone/backbone/stem/Constant_4_output_0"
    raw_data: "\003\000\000\000\000\000\000\000"
  }
  initializer {
    dims: 1
    data_type: 7
    name: "/backbone/backbone/stem/Constant_9_output_0"
    raw_data: "\001\000\000\000\000\000\000\000"
  }
  initializer {
    dims: 4
    data_type: 1
    name: "/backbone/upsample/Constant_output_0"
    raw_data: "\000\000\200?\000\000\200?\000\000\000@\000\000\000@"
  }
  initializer {
    dims: 0
    data_type: 1
    name: "/backbone/upsample/Constant_1_output_0"
    raw_data: ""
  }
  initializer {
    dims: 3
    data_type: 7
    int64_data: 1
    int64_data: 15
    int64_data: -1
    name: "469"
  }
  input {
    name: "images"
    type {
      tensor_type {
        elem_type: 1
        shape {
          dim {
            dim_value: 1
          }
          dim {
            dim_value: 3
          }
          dim {
            dim_value: 640
          }
          dim {
            dim_value: 640
          }
        }
      }
    }
  }
  output {
    name: "output"
    type {
      tensor_type {
        elem_type: 1
        shape {
          dim {
            dim_value: 1
          }
          dim {
            dim_value: 8400
          }
          dim {
            dim_value: 15
          }
        }
      }
    }
  }
}
opset_import {
  version: 11
}
